{"format": "graph-model", "generatedBy": "2.18.0", "convertedBy": "TensorFlow.js Converter v4.22.0", "signature": {"inputs": {"content_image:0": {"name": "content_image:0", "dtype": "DT_FLOAT", "tensorShape": {"dim": [{"size": "-1"}, {"size": "-1"}, {"size": "-1"}, {"size": "3"}]}}, "style_image:0": {"name": "style_image:0", "dtype": "DT_FLOAT", "tensorShape": {"dim": [{"size": "-1"}, {"size": "-1"}, {"size": "-1"}, {"size": "3"}]}}}, "outputs": {"output_0": {"name": "Identity:0", "dtype": "DT_FLOAT", "tensorShape": {"dim": [{"size": "-1"}, {"size": "-1"}, {"size": "-1"}, {"size": "3"}]}}}}, "modelTopology": {"node": [{"name": "content_image", "op": "Placeholder", "attr": {"dtype": {"type": "DT_FLOAT"}, "shape": {"shape": {"dim": [{"size": "-1"}, {"size": "-1"}, {"size": "-1"}, {"size": "3"}]}}}}, {"name": "style_image", "op": "Placeholder", "attr": {"shape": {"shape": {"dim": [{"size": "-1"}, {"size": "-1"}, {"size": "-1"}, {"size": "3"}]}}, "dtype": {"type": "DT_FLOAT"}}}, {"name": "StatefulPartitionedCall/StatefulPartitionedCall/InceptionV3/Conv2d_1a_3x3/Conv2D_weights", "op": "Const", "attr": {"dtype": {"type": "DT_FLOAT"}, "value": {"tensor": {"dtype": "DT_FLOAT", "tensorShape": {"dim": [{"size": "3"}, {"size": "3"}, {"size": "3"}, {"size": "32"}]}}}}}, {"name": "StatefulPartitionedCall/StatefulPartitionedCall/InceptionV3/Conv2d_1a_3x3/Conv2D_bn_offset", "op": "Const", "attr": {"dtype": {"type": "DT_FLOAT"}, "value": {"tensor": {"dtype": "DT_FLOAT", "tensorShape": {"dim": [{"size": "32"}]}}}}}, {"name": "StatefulPartitionedCall/StatefulPartitionedCall/transformer/contract/conv1/Conv2D_weights", "op": "Const", "attr": {"dtype": {"type": "DT_FLOAT"}, "value": {"tensor": {"dtype": "DT_FLOAT", "tensorShape": {"dim": [{"size": "9"}, {"size": "9"}, {"size": "3"}, {"size": "32"}]}}}}}, {"name": "StatefulPartitionedCall/StatefulPartitionedCall/transformer/contract/conv1/Conv2D_bn_offset", "op": "Const", "attr": {"dtype": {"type": "DT_FLOAT"}, "value": {"tensor": {"dtype": "DT_FLOAT", "tensorShape": {"dim": [{"size": "32"}]}}}}}, {"name": "StatefulPartitionedCall/StatefulPartitionedCall/InceptionV3/Conv2d_2a_3x3/Conv2D_weights", "op": "Const", "attr": {"value": {"tensor": {"dtype": "DT_FLOAT", "tensorShape": {"dim": [{"size": "3"}, {"size": "3"}, {"size": "32"}, {"size": "32"}]}}}, "dtype": {"type": "DT_FLOAT"}}}, {"name": "StatefulPartitionedCall/StatefulPartitionedCall/InceptionV3/Conv2d_2a_3x3/Conv2D_bn_offset", "op": "Const", "attr": {"value": {"tensor": {"dtype": "DT_FLOAT", "tensorShape": {"dim": [{"size": "32"}]}}}, "dtype": {"type": "DT_FLOAT"}}}, {"name": "StatefulPartitionedCall/StatefulPartitionedCall/transformer/contract/conv2/Conv2D_weights", "op": "Const", "attr": {"dtype": {"type": "DT_FLOAT"}, "value": {"tensor": {"dtype": "DT_FLOAT", "tensorShape": {"dim": [{"size": "3"}, {"size": "3"}, {"size": "32"}, {"size": "64"}]}}}}}, {"name": "StatefulPartitionedCall/StatefulPartitionedCall/transformer/contract/conv2/Conv2D_bn_offset", "op": "Const", "attr": {"dtype": {"type": "DT_FLOAT"}, "value": {"tensor": {"dtype": "DT_FLOAT", "tensorShape": {"dim": [{"size": "64"}]}}}}}, {"name": "StatefulPartitionedCall/StatefulPartitionedCall/InceptionV3/Conv2d_2b_3x3/Conv2D_weights", "op": "Const", "attr": {"value": {"tensor": {"dtype": "DT_FLOAT", "tensorShape": {"dim": [{"size": "3"}, {"size": "3"}, {"size": "32"}, {"size": "64"}]}}}, "dtype": {"type": "DT_FLOAT"}}}, {"name": "StatefulPartitionedCall/StatefulPartitionedCall/InceptionV3/Conv2d_2b_3x3/Conv2D_bn_offset", "op": "Const", "attr": {"dtype": {"type": "DT_FLOAT"}, "value": {"tensor": {"dtype": "DT_FLOAT", "tensorShape": {"dim": [{"size": "64"}]}}}}}, {"name": "StatefulPartitionedCall/StatefulPartitionedCall/transformer/contract/conv3/Conv2D_weights", "op": "Const", "attr": {"value": {"tensor": {"dtype": "DT_FLOAT", "tensorShape": {"dim": [{"size": "3"}, {"size": "3"}, {"size": "64"}, {"size": "128"}]}}}, "dtype": {"type": "DT_FLOAT"}}}, {"name": "StatefulPartitionedCall/StatefulPartitionedCall/transformer/contract/conv3/Conv2D_bn_offset", "op": "Const", "attr": {"value": {"tensor": {"dtype": "DT_FLOAT", "tensorShape": {"dim": [{"size": "128"}]}}}, "dtype": {"type": "DT_FLOAT"}}}, {"name": "StatefulPartitionedCall/StatefulPartitionedCall/InceptionV3/Conv2d_3b_1x1/Conv2D_weights", "op": "Const", "attr": {"dtype": {"type": "DT_FLOAT"}, "value": {"tensor": {"dtype": "DT_FLOAT", "tensorShape": {"dim": [{"size": "1"}, {"size": "1"}, {"size": "64"}, {"size": "80"}]}}}}}, {"name": "StatefulPartitionedCall/StatefulPartitionedCall/InceptionV3/Conv2d_3b_1x1/Conv2D_bn_offset", "op": "Const", "attr": {"value": {"tensor": {"dtype": "DT_FLOAT", "tensorShape": {"dim": [{"size": "80"}]}}}, "dtype": {"type": "DT_FLOAT"}}}, {"name": "StatefulPartitionedCall/StatefulPartitionedCall/InceptionV3/Conv2d_4a_3x3/Conv2D_weights", "op": "Const", "attr": {"dtype": {"type": "DT_FLOAT"}, "value": {"tensor": {"dtype": "DT_FLOAT", "tensorShape": {"dim": [{"size": "3"}, {"size": "3"}, {"size": "80"}, {"size": "192"}]}}}}}, {"name": "StatefulPartitionedCall/StatefulPartitionedCall/InceptionV3/Conv2d_4a_3x3/Conv2D_bn_offset", "op": "Const", "attr": {"value": {"tensor": {"dtype": "DT_FLOAT", "tensorShape": {"dim": [{"size": "192"}]}}}, "dtype": {"type": "DT_FLOAT"}}}, {"name": "StatefulPartitionedCall/StatefulPartitionedCall/InceptionV3/Mixed_5b/Branch_0/Conv2d_0a_1x1/Conv2D_weights", "op": "Const", "attr": {"value": {"tensor": {"dtype": "DT_FLOAT", "tensorShape": {"dim": [{"size": "1"}, {"size": "1"}, {"size": "192"}, {"size": "64"}]}}}, "dtype": {"type": "DT_FLOAT"}}}, {"name": "StatefulPartitionedCall/StatefulPartitionedCall/InceptionV3/Mixed_5b/Branch_0/Conv2d_0a_1x1/Conv2D_bn_offset", "op": "Const", "attr": {"dtype": {"type": "DT_FLOAT"}, "value": {"tensor": {"dtype": "DT_FLOAT", "tensorShape": {"dim": [{"size": "64"}]}}}}}, {"name": "StatefulPartitionedCall/StatefulPartitionedCall/InceptionV3/Mixed_5b/Branch_1/Conv2d_0a_1x1/Conv2D_weights", "op": "Const", "attr": {"dtype": {"type": "DT_FLOAT"}, "value": {"tensor": {"dtype": "DT_FLOAT", "tensorShape": {"dim": [{"size": "1"}, {"size": "1"}, {"size": "192"}, {"size": "48"}]}}}}}, {"name": "StatefulPartitionedCall/StatefulPartitionedCall/InceptionV3/Mixed_5b/Branch_1/Conv2d_0a_1x1/Conv2D_bn_offset", "op": "Const", "attr": {"value": {"tensor": {"dtype": "DT_FLOAT", "tensorShape": {"dim": [{"size": "48"}]}}}, "dtype": {"type": "DT_FLOAT"}}}, {"name": "StatefulPartitionedCall/StatefulPartitionedCall/InceptionV3/Mixed_5b/Branch_2/Conv2d_0a_1x1/Conv2D_weights", "op": "Const", "attr": {"value": {"tensor": {"dtype": "DT_FLOAT", "tensorShape": {"dim": [{"size": "1"}, {"size": "1"}, {"size": "192"}, {"size": "64"}]}}}, "dtype": {"type": "DT_FLOAT"}}}, {"name": "StatefulPartitionedCall/StatefulPartitionedCall/InceptionV3/Mixed_5b/Branch_2/Conv2d_0a_1x1/Conv2D_bn_offset", "op": "Const", "attr": {"value": {"tensor": {"dtype": "DT_FLOAT", "tensorShape": {"dim": [{"size": "64"}]}}}, "dtype": {"type": "DT_FLOAT"}}}, {"name": "StatefulPartitionedCall/StatefulPartitionedCall/InceptionV3/Mixed_5b/Branch_3/Conv2d_0b_1x1/Conv2D_weights", "op": "Const", "attr": {"value": {"tensor": {"dtype": "DT_FLOAT", "tensorShape": {"dim": [{"size": "1"}, {"size": "1"}, {"size": "192"}, {"size": "32"}]}}}, "dtype": {"type": "DT_FLOAT"}}}, {"name": "StatefulPartitionedCall/StatefulPartitionedCall/InceptionV3/Mixed_5b/Branch_3/Conv2d_0b_1x1/Conv2D_bn_offset", "op": "Const", "attr": {"dtype": {"type": "DT_FLOAT"}, "value": {"tensor": {"dtype": "DT_FLOAT", "tensorShape": {"dim": [{"size": "32"}]}}}}}, {"name": "StatefulPartitionedCall/StatefulPartitionedCall/InceptionV3/Mixed_5b/Branch_1/Conv2d_0b_5x5/Conv2D_weights", "op": "Const", "attr": {"dtype": {"type": "DT_FLOAT"}, "value": {"tensor": {"dtype": "DT_FLOAT", "tensorShape": {"dim": [{"size": "5"}, {"size": "5"}, {"size": "48"}, {"size": "64"}]}}}}}, {"name": "StatefulPartitionedCall/StatefulPartitionedCall/InceptionV3/Mixed_5b/Branch_1/Conv2d_0b_5x5/Conv2D_bn_offset", "op": "Const", "attr": {"value": {"tensor": {"dtype": "DT_FLOAT", "tensorShape": {"dim": [{"size": "64"}]}}}, "dtype": {"type": "DT_FLOAT"}}}, {"name": "StatefulPartitionedCall/StatefulPartitionedCall/InceptionV3/Mixed_5b/Branch_2/Conv2d_0b_3x3/Conv2D_weights", "op": "Const", "attr": {"dtype": {"type": "DT_FLOAT"}, "value": {"tensor": {"dtype": "DT_FLOAT", "tensorShape": {"dim": [{"size": "3"}, {"size": "3"}, {"size": "64"}, {"size": "96"}]}}}}}, {"name": "StatefulPartitionedCall/StatefulPartitionedCall/InceptionV3/Mixed_5b/Branch_2/Conv2d_0b_3x3/Conv2D_bn_offset", "op": "Const", "attr": {"value": {"tensor": {"dtype": "DT_FLOAT", "tensorShape": {"dim": [{"size": "96"}]}}}, "dtype": {"type": "DT_FLOAT"}}}, {"name": "StatefulPartitionedCall/StatefulPartitionedCall/InceptionV3/Mixed_5b/Branch_2/Conv2d_0c_3x3/Conv2D_weights", "op": "Const", "attr": {"value": {"tensor": {"dtype": "DT_FLOAT", "tensorShape": {"dim": [{"size": "3"}, {"size": "3"}, {"size": "96"}, {"size": "96"}]}}}, "dtype": {"type": "DT_FLOAT"}}}, {"name": "StatefulPartitionedCall/StatefulPartitionedCall/InceptionV3/Mixed_5b/Branch_2/Conv2d_0c_3x3/Conv2D_bn_offset", "op": "Const", "attr": {"dtype": {"type": "DT_FLOAT"}, "value": {"tensor": {"dtype": "DT_FLOAT", "tensorShape": {"dim": [{"size": "96"}]}}}}}, {"name": "StatefulPartitionedCall/StatefulPartitionedCall/InceptionV3/Mixed_5c/Branch_0/Conv2d_0a_1x1/Conv2D_weights", "op": "Const", "attr": {"dtype": {"type": "DT_FLOAT"}, "value": {"tensor": {"dtype": "DT_FLOAT", "tensorShape": {"dim": [{"size": "1"}, {"size": "1"}, {"size": "256"}, {"size": "64"}]}}}}}, {"name": "StatefulPartitionedCall/StatefulPartitionedCall/InceptionV3/Mixed_5c/Branch_0/Conv2d_0a_1x1/Conv2D_bn_offset", "op": "Const", "attr": {"value": {"tensor": {"dtype": "DT_FLOAT", "tensorShape": {"dim": [{"size": "64"}]}}}, "dtype": {"type": "DT_FLOAT"}}}, {"name": "StatefulPartitionedCall/StatefulPartitionedCall/InceptionV3/Mixed_5c/Branch_1/Conv2d_0b_1x1/Conv2D_weights", "op": "Const", "attr": {"dtype": {"type": "DT_FLOAT"}, "value": {"tensor": {"dtype": "DT_FLOAT", "tensorShape": {"dim": [{"size": "1"}, {"size": "1"}, {"size": "256"}, {"size": "48"}]}}}}}, {"name": "StatefulPartitionedCall/StatefulPartitionedCall/InceptionV3/Mixed_5c/Branch_1/Conv2d_0b_1x1/Conv2D_bn_offset", "op": "Const", "attr": {"dtype": {"type": "DT_FLOAT"}, "value": {"tensor": {"dtype": "DT_FLOAT", "tensorShape": {"dim": [{"size": "48"}]}}}}}, {"name": "StatefulPartitionedCall/StatefulPartitionedCall/InceptionV3/Mixed_5c/Branch_2/Conv2d_0a_1x1/Conv2D_weights", "op": "Const", "attr": {"dtype": {"type": "DT_FLOAT"}, "value": {"tensor": {"dtype": "DT_FLOAT", "tensorShape": {"dim": [{"size": "1"}, {"size": "1"}, {"size": "256"}, {"size": "64"}]}}}}}, {"name": "StatefulPartitionedCall/StatefulPartitionedCall/InceptionV3/Mixed_5c/Branch_2/Conv2d_0a_1x1/Conv2D_bn_offset", "op": "Const", "attr": {"value": {"tensor": {"dtype": "DT_FLOAT", "tensorShape": {"dim": [{"size": "64"}]}}}, "dtype": {"type": "DT_FLOAT"}}}, {"name": "StatefulPartitionedCall/StatefulPartitionedCall/InceptionV3/Mixed_5c/Branch_3/Conv2d_0b_1x1/Conv2D_weights", "op": "Const", "attr": {"value": {"tensor": {"dtype": "DT_FLOAT", "tensorShape": {"dim": [{"size": "1"}, {"size": "1"}, {"size": "256"}, {"size": "64"}]}}}, "dtype": {"type": "DT_FLOAT"}}}, {"name": "StatefulPartitionedCall/StatefulPartitionedCall/InceptionV3/Mixed_5c/Branch_3/Conv2d_0b_1x1/Conv2D_bn_offset", "op": "Const", "attr": {"dtype": {"type": "DT_FLOAT"}, "value": {"tensor": {"dtype": "DT_FLOAT", "tensorShape": {"dim": [{"size": "64"}]}}}}}, {"name": "StatefulPartitionedCall/StatefulPartitionedCall/InceptionV3/Mixed_5c/Branch_1/Conv_1_0c_5x5/Conv2D_weights", "op": "Const", "attr": {"dtype": {"type": "DT_FLOAT"}, "value": {"tensor": {"dtype": "DT_FLOAT", "tensorShape": {"dim": [{"size": "5"}, {"size": "5"}, {"size": "48"}, {"size": "64"}]}}}}}, {"name": "StatefulPartitionedCall/StatefulPartitionedCall/InceptionV3/Mixed_5c/Branch_1/Conv_1_0c_5x5/Conv2D_bn_offset", "op": "Const", "attr": {"value": {"tensor": {"dtype": "DT_FLOAT", "tensorShape": {"dim": [{"size": "64"}]}}}, "dtype": {"type": "DT_FLOAT"}}}, {"name": "StatefulPartitionedCall/StatefulPartitionedCall/InceptionV3/Mixed_5c/Branch_2/Conv2d_0b_3x3/Conv2D_weights", "op": "Const", "attr": {"value": {"tensor": {"dtype": "DT_FLOAT", "tensorShape": {"dim": [{"size": "3"}, {"size": "3"}, {"size": "64"}, {"size": "96"}]}}}, "dtype": {"type": "DT_FLOAT"}}}, {"name": "StatefulPartitionedCall/StatefulPartitionedCall/InceptionV3/Mixed_5c/Branch_2/Conv2d_0b_3x3/Conv2D_bn_offset", "op": "Const", "attr": {"value": {"tensor": {"dtype": "DT_FLOAT", "tensorShape": {"dim": [{"size": "96"}]}}}, "dtype": {"type": "DT_FLOAT"}}}, {"name": "StatefulPartitionedCall/StatefulPartitionedCall/InceptionV3/Mixed_5c/Branch_2/Conv2d_0c_3x3/Conv2D_weights", "op": "Const", "attr": {"dtype": {"type": "DT_FLOAT"}, "value": {"tensor": {"dtype": "DT_FLOAT", "tensorShape": {"dim": [{"size": "3"}, {"size": "3"}, {"size": "96"}, {"size": "96"}]}}}}}, {"name": "StatefulPartitionedCall/StatefulPartitionedCall/InceptionV3/Mixed_5c/Branch_2/Conv2d_0c_3x3/Conv2D_bn_offset", "op": "Const", "attr": {"value": {"tensor": {"dtype": "DT_FLOAT", "tensorShape": {"dim": [{"size": "96"}]}}}, "dtype": {"type": "DT_FLOAT"}}}, {"name": "StatefulPartitionedCall/StatefulPartitionedCall/InceptionV3/Mixed_5d/Branch_0/Conv2d_0a_1x1/Conv2D_weights", "op": "Const", "attr": {"value": {"tensor": {"dtype": "DT_FLOAT", "tensorShape": {"dim": [{"size": "1"}, {"size": "1"}, {"size": "288"}, {"size": "64"}]}}}, "dtype": {"type": "DT_FLOAT"}}}, {"name": "StatefulPartitionedCall/StatefulPartitionedCall/InceptionV3/Mixed_5d/Branch_0/Conv2d_0a_1x1/Conv2D_bn_offset", "op": "Const", "attr": {"value": {"tensor": {"dtype": "DT_FLOAT", "tensorShape": {"dim": [{"size": "64"}]}}}, "dtype": {"type": "DT_FLOAT"}}}, {"name": "StatefulPartitionedCall/StatefulPartitionedCall/InceptionV3/Mixed_5d/Branch_1/Conv2d_0a_1x1/Conv2D_weights", "op": "Const", "attr": {"dtype": {"type": "DT_FLOAT"}, "value": {"tensor": {"dtype": "DT_FLOAT", "tensorShape": {"dim": [{"size": "1"}, {"size": "1"}, {"size": "288"}, {"size": "48"}]}}}}}, {"name": "StatefulPartitionedCall/StatefulPartitionedCall/InceptionV3/Mixed_5d/Branch_1/Conv2d_0a_1x1/Conv2D_bn_offset", "op": "Const", "attr": {"value": {"tensor": {"dtype": "DT_FLOAT", "tensorShape": {"dim": [{"size": "48"}]}}}, "dtype": {"type": "DT_FLOAT"}}}, {"name": "StatefulPartitionedCall/StatefulPartitionedCall/InceptionV3/Mixed_5d/Branch_2/Conv2d_0a_1x1/Conv2D_weights", "op": "Const", "attr": {"value": {"tensor": {"dtype": "DT_FLOAT", "tensorShape": {"dim": [{"size": "1"}, {"size": "1"}, {"size": "288"}, {"size": "64"}]}}}, "dtype": {"type": "DT_FLOAT"}}}, {"name": "StatefulPartitionedCall/StatefulPartitionedCall/InceptionV3/Mixed_5d/Branch_2/Conv2d_0a_1x1/Conv2D_bn_offset", "op": "Const", "attr": {"value": {"tensor": {"dtype": "DT_FLOAT", "tensorShape": {"dim": [{"size": "64"}]}}}, "dtype": {"type": "DT_FLOAT"}}}, {"name": "StatefulPartitionedCall/StatefulPartitionedCall/InceptionV3/Mixed_5d/Branch_3/Conv2d_0b_1x1/Conv2D_weights", "op": "Const", "attr": {"value": {"tensor": {"dtype": "DT_FLOAT", "tensorShape": {"dim": [{"size": "1"}, {"size": "1"}, {"size": "288"}, {"size": "64"}]}}}, "dtype": {"type": "DT_FLOAT"}}}, {"name": "StatefulPartitionedCall/StatefulPartitionedCall/InceptionV3/Mixed_5d/Branch_3/Conv2d_0b_1x1/Conv2D_bn_offset", "op": "Const", "attr": {"dtype": {"type": "DT_FLOAT"}, "value": {"tensor": {"dtype": "DT_FLOAT", "tensorShape": {"dim": [{"size": "64"}]}}}}}, {"name": "StatefulPartitionedCall/StatefulPartitionedCall/InceptionV3/Mixed_5d/Branch_1/Conv2d_0b_5x5/Conv2D_weights", "op": "Const", "attr": {"value": {"tensor": {"dtype": "DT_FLOAT", "tensorShape": {"dim": [{"size": "5"}, {"size": "5"}, {"size": "48"}, {"size": "64"}]}}}, "dtype": {"type": "DT_FLOAT"}}}, {"name": "StatefulPartitionedCall/StatefulPartitionedCall/InceptionV3/Mixed_5d/Branch_1/Conv2d_0b_5x5/Conv2D_bn_offset", "op": "Const", "attr": {"value": {"tensor": {"dtype": "DT_FLOAT", "tensorShape": {"dim": [{"size": "64"}]}}}, "dtype": {"type": "DT_FLOAT"}}}, {"name": "StatefulPartitionedCall/StatefulPartitionedCall/InceptionV3/Mixed_5d/Branch_2/Conv2d_0b_3x3/Conv2D_weights", "op": "Const", "attr": {"value": {"tensor": {"dtype": "DT_FLOAT", "tensorShape": {"dim": [{"size": "3"}, {"size": "3"}, {"size": "64"}, {"size": "96"}]}}}, "dtype": {"type": "DT_FLOAT"}}}, {"name": "StatefulPartitionedCall/StatefulPartitionedCall/InceptionV3/Mixed_5d/Branch_2/Conv2d_0b_3x3/Conv2D_bn_offset", "op": "Const", "attr": {"value": {"tensor": {"dtype": "DT_FLOAT", "tensorShape": {"dim": [{"size": "96"}]}}}, "dtype": {"type": "DT_FLOAT"}}}, {"name": "StatefulPartitionedCall/StatefulPartitionedCall/InceptionV3/Mixed_5d/Branch_2/Conv2d_0c_3x3/Conv2D_weights", "op": "Const", "attr": {"value": {"tensor": {"dtype": "DT_FLOAT", "tensorShape": {"dim": [{"size": "3"}, {"size": "3"}, {"size": "96"}, {"size": "96"}]}}}, "dtype": {"type": "DT_FLOAT"}}}, {"name": "StatefulPartitionedCall/StatefulPartitionedCall/InceptionV3/Mixed_5d/Branch_2/Conv2d_0c_3x3/Conv2D_bn_offset", "op": "Const", "attr": {"value": {"tensor": {"dtype": "DT_FLOAT", "tensorShape": {"dim": [{"size": "96"}]}}}, "dtype": {"type": "DT_FLOAT"}}}, {"name": "StatefulPartitionedCall/StatefulPartitionedCall/InceptionV3/Mixed_6a/Branch_0/Conv2d_1a_1x1/Conv2D_weights", "op": "Const", "attr": {"dtype": {"type": "DT_FLOAT"}, "value": {"tensor": {"dtype": "DT_FLOAT", "tensorShape": {"dim": [{"size": "3"}, {"size": "3"}, {"size": "288"}, {"size": "384"}]}}}}}, {"name": "StatefulPartitionedCall/StatefulPartitionedCall/InceptionV3/Mixed_6a/Branch_0/Conv2d_1a_1x1/Conv2D_bn_offset", "op": "Const", "attr": {"value": {"tensor": {"dtype": "DT_FLOAT", "tensorShape": {"dim": [{"size": "384"}]}}}, "dtype": {"type": "DT_FLOAT"}}}, {"name": "StatefulPartitionedCall/StatefulPartitionedCall/InceptionV3/Mixed_6a/Branch_1/Conv2d_0a_1x1/Conv2D_weights", "op": "Const", "attr": {"value": {"tensor": {"dtype": "DT_FLOAT", "tensorShape": {"dim": [{"size": "1"}, {"size": "1"}, {"size": "288"}, {"size": "64"}]}}}, "dtype": {"type": "DT_FLOAT"}}}, {"name": "StatefulPartitionedCall/StatefulPartitionedCall/InceptionV3/Mixed_6a/Branch_1/Conv2d_0a_1x1/Conv2D_bn_offset", "op": "Const", "attr": {"value": {"tensor": {"dtype": "DT_FLOAT", "tensorShape": {"dim": [{"size": "64"}]}}}, "dtype": {"type": "DT_FLOAT"}}}, {"name": "StatefulPartitionedCall/StatefulPartitionedCall/InceptionV3/Mixed_6a/Branch_1/Conv2d_0b_3x3/Conv2D_weights", "op": "Const", "attr": {"dtype": {"type": "DT_FLOAT"}, "value": {"tensor": {"dtype": "DT_FLOAT", "tensorShape": {"dim": [{"size": "3"}, {"size": "3"}, {"size": "64"}, {"size": "96"}]}}}}}, {"name": "StatefulPartitionedCall/StatefulPartitionedCall/InceptionV3/Mixed_6a/Branch_1/Conv2d_0b_3x3/Conv2D_bn_offset", "op": "Const", "attr": {"dtype": {"type": "DT_FLOAT"}, "value": {"tensor": {"dtype": "DT_FLOAT", "tensorShape": {"dim": [{"size": "96"}]}}}}}, {"name": "StatefulPartitionedCall/StatefulPartitionedCall/InceptionV3/Mixed_6a/Branch_1/Conv2d_1a_1x1/Conv2D_weights", "op": "Const", "attr": {"dtype": {"type": "DT_FLOAT"}, "value": {"tensor": {"dtype": "DT_FLOAT", "tensorShape": {"dim": [{"size": "3"}, {"size": "3"}, {"size": "96"}, {"size": "96"}]}}}}}, {"name": "StatefulPartitionedCall/StatefulPartitionedCall/InceptionV3/Mixed_6a/Branch_1/Conv2d_1a_1x1/Conv2D_bn_offset", "op": "Const", "attr": {"value": {"tensor": {"dtype": "DT_FLOAT", "tensorShape": {"dim": [{"size": "96"}]}}}, "dtype": {"type": "DT_FLOAT"}}}, {"name": "StatefulPartitionedCall/StatefulPartitionedCall/InceptionV3/Mixed_6b/Branch_0/Conv2d_0a_1x1/Conv2D_weights", "op": "Const", "attr": {"value": {"tensor": {"dtype": "DT_FLOAT", "tensorShape": {"dim": [{"size": "1"}, {"size": "1"}, {"size": "768"}, {"size": "192"}]}}}, "dtype": {"type": "DT_FLOAT"}}}, {"name": "StatefulPartitionedCall/StatefulPartitionedCall/InceptionV3/Mixed_6b/Branch_0/Conv2d_0a_1x1/Conv2D_bn_offset", "op": "Const", "attr": {"dtype": {"type": "DT_FLOAT"}, "value": {"tensor": {"dtype": "DT_FLOAT", "tensorShape": {"dim": [{"size": "192"}]}}}}}, {"name": "StatefulPartitionedCall/StatefulPartitionedCall/InceptionV3/Mixed_6b/Branch_1/Conv2d_0a_1x1/Conv2D_weights", "op": "Const", "attr": {"dtype": {"type": "DT_FLOAT"}, "value": {"tensor": {"dtype": "DT_FLOAT", "tensorShape": {"dim": [{"size": "1"}, {"size": "1"}, {"size": "768"}, {"size": "128"}]}}}}}, {"name": "StatefulPartitionedCall/StatefulPartitionedCall/InceptionV3/Mixed_6b/Branch_1/Conv2d_0a_1x1/Conv2D_bn_offset", "op": "Const", "attr": {"dtype": {"type": "DT_FLOAT"}, "value": {"tensor": {"dtype": "DT_FLOAT", "tensorShape": {"dim": [{"size": "128"}]}}}}}, {"name": "StatefulPartitionedCall/StatefulPartitionedCall/InceptionV3/Mixed_6b/Branch_2/Conv2d_0a_1x1/Conv2D_weights", "op": "Const", "attr": {"dtype": {"type": "DT_FLOAT"}, "value": {"tensor": {"dtype": "DT_FLOAT", "tensorShape": {"dim": [{"size": "1"}, {"size": "1"}, {"size": "768"}, {"size": "128"}]}}}}}, {"name": "StatefulPartitionedCall/StatefulPartitionedCall/InceptionV3/Mixed_6b/Branch_2/Conv2d_0a_1x1/Conv2D_bn_offset", "op": "Const", "attr": {"value": {"tensor": {"dtype": "DT_FLOAT", "tensorShape": {"dim": [{"size": "128"}]}}}, "dtype": {"type": "DT_FLOAT"}}}, {"name": "StatefulPartitionedCall/StatefulPartitionedCall/InceptionV3/Mixed_6b/Branch_3/Conv2d_0b_1x1/Conv2D_weights", "op": "Const", "attr": {"dtype": {"type": "DT_FLOAT"}, "value": {"tensor": {"dtype": "DT_FLOAT", "tensorShape": {"dim": [{"size": "1"}, {"size": "1"}, {"size": "768"}, {"size": "192"}]}}}}}, {"name": "StatefulPartitionedCall/StatefulPartitionedCall/InceptionV3/Mixed_6b/Branch_3/Conv2d_0b_1x1/Conv2D_bn_offset", "op": "Const", "attr": {"value": {"tensor": {"dtype": "DT_FLOAT", "tensorShape": {"dim": [{"size": "192"}]}}}, "dtype": {"type": "DT_FLOAT"}}}, {"name": "StatefulPartitionedCall/StatefulPartitionedCall/InceptionV3/Mixed_6b/Branch_1/Conv2d_0b_1x7/Conv2D_weights", "op": "Const", "attr": {"dtype": {"type": "DT_FLOAT"}, "value": {"tensor": {"dtype": "DT_FLOAT", "tensorShape": {"dim": [{"size": "1"}, {"size": "7"}, {"size": "128"}, {"size": "128"}]}}}}}, {"name": "StatefulPartitionedCall/StatefulPartitionedCall/InceptionV3/Mixed_6b/Branch_1/Conv2d_0b_1x7/Conv2D_bn_offset", "op": "Const", "attr": {"dtype": {"type": "DT_FLOAT"}, "value": {"tensor": {"dtype": "DT_FLOAT", "tensorShape": {"dim": [{"size": "128"}]}}}}}, {"name": "StatefulPartitionedCall/StatefulPartitionedCall/InceptionV3/Mixed_6b/Branch_2/Conv2d_0b_7x1/Conv2D_weights", "op": "Const", "attr": {"dtype": {"type": "DT_FLOAT"}, "value": {"tensor": {"dtype": "DT_FLOAT", "tensorShape": {"dim": [{"size": "7"}, {"size": "1"}, {"size": "128"}, {"size": "128"}]}}}}}, {"name": "StatefulPartitionedCall/StatefulPartitionedCall/InceptionV3/Mixed_6b/Branch_2/Conv2d_0b_7x1/Conv2D_bn_offset", "op": "Const", "attr": {"value": {"tensor": {"dtype": "DT_FLOAT", "tensorShape": {"dim": [{"size": "128"}]}}}, "dtype": {"type": "DT_FLOAT"}}}, {"name": "StatefulPartitionedCall/StatefulPartitionedCall/InceptionV3/Mixed_6b/Branch_1/Conv2d_0c_7x1/Conv2D_weights", "op": "Const", "attr": {"value": {"tensor": {"dtype": "DT_FLOAT", "tensorShape": {"dim": [{"size": "7"}, {"size": "1"}, {"size": "128"}, {"size": "192"}]}}}, "dtype": {"type": "DT_FLOAT"}}}, {"name": "StatefulPartitionedCall/StatefulPartitionedCall/InceptionV3/Mixed_6b/Branch_1/Conv2d_0c_7x1/Conv2D_bn_offset", "op": "Const", "attr": {"dtype": {"type": "DT_FLOAT"}, "value": {"tensor": {"dtype": "DT_FLOAT", "tensorShape": {"dim": [{"size": "192"}]}}}}}, {"name": "StatefulPartitionedCall/StatefulPartitionedCall/InceptionV3/Mixed_6b/Branch_2/Conv2d_0c_1x7/Conv2D_weights", "op": "Const", "attr": {"value": {"tensor": {"dtype": "DT_FLOAT", "tensorShape": {"dim": [{"size": "1"}, {"size": "7"}, {"size": "128"}, {"size": "128"}]}}}, "dtype": {"type": "DT_FLOAT"}}}, {"name": "StatefulPartitionedCall/StatefulPartitionedCall/InceptionV3/Mixed_6b/Branch_2/Conv2d_0c_1x7/Conv2D_bn_offset", "op": "Const", "attr": {"value": {"tensor": {"dtype": "DT_FLOAT", "tensorShape": {"dim": [{"size": "128"}]}}}, "dtype": {"type": "DT_FLOAT"}}}, {"name": "StatefulPartitionedCall/StatefulPartitionedCall/InceptionV3/Mixed_6b/Branch_2/Conv2d_0d_7x1/Conv2D_weights", "op": "Const", "attr": {"dtype": {"type": "DT_FLOAT"}, "value": {"tensor": {"dtype": "DT_FLOAT", "tensorShape": {"dim": [{"size": "7"}, {"size": "1"}, {"size": "128"}, {"size": "128"}]}}}}}, {"name": "StatefulPartitionedCall/StatefulPartitionedCall/InceptionV3/Mixed_6b/Branch_2/Conv2d_0d_7x1/Conv2D_bn_offset", "op": "Const", "attr": {"value": {"tensor": {"dtype": "DT_FLOAT", "tensorShape": {"dim": [{"size": "128"}]}}}, "dtype": {"type": "DT_FLOAT"}}}, {"name": "StatefulPartitionedCall/StatefulPartitionedCall/InceptionV3/Mixed_6b/Branch_2/Conv2d_0e_1x7/Conv2D_weights", "op": "Const", "attr": {"dtype": {"type": "DT_FLOAT"}, "value": {"tensor": {"dtype": "DT_FLOAT", "tensorShape": {"dim": [{"size": "1"}, {"size": "7"}, {"size": "128"}, {"size": "192"}]}}}}}, {"name": "StatefulPartitionedCall/StatefulPartitionedCall/InceptionV3/Mixed_6b/Branch_2/Conv2d_0e_1x7/Conv2D_bn_offset", "op": "Const", "attr": {"value": {"tensor": {"dtype": "DT_FLOAT", "tensorShape": {"dim": [{"size": "192"}]}}}, "dtype": {"type": "DT_FLOAT"}}}, {"name": "StatefulPartitionedCall/StatefulPartitionedCall/InceptionV3/Mixed_6c/Branch_0/Conv2d_0a_1x1/Conv2D_weights", "op": "Const", "attr": {"dtype": {"type": "DT_FLOAT"}, "value": {"tensor": {"dtype": "DT_FLOAT", "tensorShape": {"dim": [{"size": "1"}, {"size": "1"}, {"size": "768"}, {"size": "192"}]}}}}}, {"name": "StatefulPartitionedCall/StatefulPartitionedCall/InceptionV3/Mixed_6c/Branch_0/Conv2d_0a_1x1/Conv2D_bn_offset", "op": "Const", "attr": {"dtype": {"type": "DT_FLOAT"}, "value": {"tensor": {"dtype": "DT_FLOAT", "tensorShape": {"dim": [{"size": "192"}]}}}}}, {"name": "StatefulPartitionedCall/StatefulPartitionedCall/InceptionV3/Mixed_6c/Branch_1/Conv2d_0a_1x1/Conv2D_weights", "op": "Const", "attr": {"dtype": {"type": "DT_FLOAT"}, "value": {"tensor": {"dtype": "DT_FLOAT", "tensorShape": {"dim": [{"size": "1"}, {"size": "1"}, {"size": "768"}, {"size": "160"}]}}}}}, {"name": "StatefulPartitionedCall/StatefulPartitionedCall/InceptionV3/Mixed_6c/Branch_1/Conv2d_0a_1x1/Conv2D_bn_offset", "op": "Const", "attr": {"dtype": {"type": "DT_FLOAT"}, "value": {"tensor": {"dtype": "DT_FLOAT", "tensorShape": {"dim": [{"size": "160"}]}}}}}, {"name": "StatefulPartitionedCall/StatefulPartitionedCall/InceptionV3/Mixed_6c/Branch_2/Conv2d_0a_1x1/Conv2D_weights", "op": "Const", "attr": {"dtype": {"type": "DT_FLOAT"}, "value": {"tensor": {"dtype": "DT_FLOAT", "tensorShape": {"dim": [{"size": "1"}, {"size": "1"}, {"size": "768"}, {"size": "160"}]}}}}}, {"name": "StatefulPartitionedCall/StatefulPartitionedCall/InceptionV3/Mixed_6c/Branch_2/Conv2d_0a_1x1/Conv2D_bn_offset", "op": "Const", "attr": {"value": {"tensor": {"dtype": "DT_FLOAT", "tensorShape": {"dim": [{"size": "160"}]}}}, "dtype": {"type": "DT_FLOAT"}}}, {"name": "StatefulPartitionedCall/StatefulPartitionedCall/InceptionV3/Mixed_6c/Branch_3/Conv2d_0b_1x1/Conv2D_weights", "op": "Const", "attr": {"dtype": {"type": "DT_FLOAT"}, "value": {"tensor": {"dtype": "DT_FLOAT", "tensorShape": {"dim": [{"size": "1"}, {"size": "1"}, {"size": "768"}, {"size": "192"}]}}}}}, {"name": "StatefulPartitionedCall/StatefulPartitionedCall/InceptionV3/Mixed_6c/Branch_3/Conv2d_0b_1x1/Conv2D_bn_offset", "op": "Const", "attr": {"value": {"tensor": {"dtype": "DT_FLOAT", "tensorShape": {"dim": [{"size": "192"}]}}}, "dtype": {"type": "DT_FLOAT"}}}, {"name": "StatefulPartitionedCall/StatefulPartitionedCall/InceptionV3/Mixed_6c/Branch_1/Conv2d_0b_1x7/Conv2D_weights", "op": "Const", "attr": {"value": {"tensor": {"dtype": "DT_FLOAT", "tensorShape": {"dim": [{"size": "1"}, {"size": "7"}, {"size": "160"}, {"size": "160"}]}}}, "dtype": {"type": "DT_FLOAT"}}}, {"name": "StatefulPartitionedCall/StatefulPartitionedCall/InceptionV3/Mixed_6c/Branch_1/Conv2d_0b_1x7/Conv2D_bn_offset", "op": "Const", "attr": {"value": {"tensor": {"dtype": "DT_FLOAT", "tensorShape": {"dim": [{"size": "160"}]}}}, "dtype": {"type": "DT_FLOAT"}}}, {"name": "StatefulPartitionedCall/StatefulPartitionedCall/InceptionV3/Mixed_6c/Branch_2/Conv2d_0b_7x1/Conv2D_weights", "op": "Const", "attr": {"dtype": {"type": "DT_FLOAT"}, "value": {"tensor": {"dtype": "DT_FLOAT", "tensorShape": {"dim": [{"size": "7"}, {"size": "1"}, {"size": "160"}, {"size": "160"}]}}}}}, {"name": "StatefulPartitionedCall/StatefulPartitionedCall/InceptionV3/Mixed_6c/Branch_2/Conv2d_0b_7x1/Conv2D_bn_offset", "op": "Const", "attr": {"value": {"tensor": {"dtype": "DT_FLOAT", "tensorShape": {"dim": [{"size": "160"}]}}}, "dtype": {"type": "DT_FLOAT"}}}, {"name": "StatefulPartitionedCall/StatefulPartitionedCall/InceptionV3/Mixed_6c/Branch_1/Conv2d_0c_7x1/Conv2D_weights", "op": "Const", "attr": {"value": {"tensor": {"dtype": "DT_FLOAT", "tensorShape": {"dim": [{"size": "7"}, {"size": "1"}, {"size": "160"}, {"size": "192"}]}}}, "dtype": {"type": "DT_FLOAT"}}}, {"name": "StatefulPartitionedCall/StatefulPartitionedCall/InceptionV3/Mixed_6c/Branch_1/Conv2d_0c_7x1/Conv2D_bn_offset", "op": "Const", "attr": {"dtype": {"type": "DT_FLOAT"}, "value": {"tensor": {"dtype": "DT_FLOAT", "tensorShape": {"dim": [{"size": "192"}]}}}}}, {"name": "StatefulPartitionedCall/StatefulPartitionedCall/InceptionV3/Mixed_6c/Branch_2/Conv2d_0c_1x7/Conv2D_weights", "op": "Const", "attr": {"dtype": {"type": "DT_FLOAT"}, "value": {"tensor": {"dtype": "DT_FLOAT", "tensorShape": {"dim": [{"size": "1"}, {"size": "7"}, {"size": "160"}, {"size": "160"}]}}}}}, {"name": "StatefulPartitionedCall/StatefulPartitionedCall/InceptionV3/Mixed_6c/Branch_2/Conv2d_0c_1x7/Conv2D_bn_offset", "op": "Const", "attr": {"dtype": {"type": "DT_FLOAT"}, "value": {"tensor": {"dtype": "DT_FLOAT", "tensorShape": {"dim": [{"size": "160"}]}}}}}, {"name": "StatefulPartitionedCall/StatefulPartitionedCall/InceptionV3/Mixed_6c/Branch_2/Conv2d_0d_7x1/Conv2D_weights", "op": "Const", "attr": {"value": {"tensor": {"dtype": "DT_FLOAT", "tensorShape": {"dim": [{"size": "7"}, {"size": "1"}, {"size": "160"}, {"size": "160"}]}}}, "dtype": {"type": "DT_FLOAT"}}}, {"name": "StatefulPartitionedCall/StatefulPartitionedCall/InceptionV3/Mixed_6c/Branch_2/Conv2d_0d_7x1/Conv2D_bn_offset", "op": "Const", "attr": {"dtype": {"type": "DT_FLOAT"}, "value": {"tensor": {"dtype": "DT_FLOAT", "tensorShape": {"dim": [{"size": "160"}]}}}}}, {"name": "StatefulPartitionedCall/StatefulPartitionedCall/InceptionV3/Mixed_6c/Branch_2/Conv2d_0e_1x7/Conv2D_weights", "op": "Const", "attr": {"value": {"tensor": {"dtype": "DT_FLOAT", "tensorShape": {"dim": [{"size": "1"}, {"size": "7"}, {"size": "160"}, {"size": "192"}]}}}, "dtype": {"type": "DT_FLOAT"}}}, {"name": "StatefulPartitionedCall/StatefulPartitionedCall/InceptionV3/Mixed_6c/Branch_2/Conv2d_0e_1x7/Conv2D_bn_offset", "op": "Const", "attr": {"value": {"tensor": {"dtype": "DT_FLOAT", "tensorShape": {"dim": [{"size": "192"}]}}}, "dtype": {"type": "DT_FLOAT"}}}, {"name": "StatefulPartitionedCall/StatefulPartitionedCall/InceptionV3/Mixed_6d/Branch_0/Conv2d_0a_1x1/Conv2D_weights", "op": "Const", "attr": {"dtype": {"type": "DT_FLOAT"}, "value": {"tensor": {"dtype": "DT_FLOAT", "tensorShape": {"dim": [{"size": "1"}, {"size": "1"}, {"size": "768"}, {"size": "192"}]}}}}}, {"name": "StatefulPartitionedCall/StatefulPartitionedCall/InceptionV3/Mixed_6d/Branch_0/Conv2d_0a_1x1/Conv2D_bn_offset", "op": "Const", "attr": {"dtype": {"type": "DT_FLOAT"}, "value": {"tensor": {"dtype": "DT_FLOAT", "tensorShape": {"dim": [{"size": "192"}]}}}}}, {"name": "StatefulPartitionedCall/StatefulPartitionedCall/InceptionV3/Mixed_6d/Branch_1/Conv2d_0a_1x1/Conv2D_weights", "op": "Const", "attr": {"dtype": {"type": "DT_FLOAT"}, "value": {"tensor": {"dtype": "DT_FLOAT", "tensorShape": {"dim": [{"size": "1"}, {"size": "1"}, {"size": "768"}, {"size": "160"}]}}}}}, {"name": "StatefulPartitionedCall/StatefulPartitionedCall/InceptionV3/Mixed_6d/Branch_1/Conv2d_0a_1x1/Conv2D_bn_offset", "op": "Const", "attr": {"dtype": {"type": "DT_FLOAT"}, "value": {"tensor": {"dtype": "DT_FLOAT", "tensorShape": {"dim": [{"size": "160"}]}}}}}, {"name": "StatefulPartitionedCall/StatefulPartitionedCall/InceptionV3/Mixed_6d/Branch_2/Conv2d_0a_1x1/Conv2D_weights", "op": "Const", "attr": {"dtype": {"type": "DT_FLOAT"}, "value": {"tensor": {"dtype": "DT_FLOAT", "tensorShape": {"dim": [{"size": "1"}, {"size": "1"}, {"size": "768"}, {"size": "160"}]}}}}}, {"name": "StatefulPartitionedCall/StatefulPartitionedCall/InceptionV3/Mixed_6d/Branch_2/Conv2d_0a_1x1/Conv2D_bn_offset", "op": "Const", "attr": {"dtype": {"type": "DT_FLOAT"}, "value": {"tensor": {"dtype": "DT_FLOAT", "tensorShape": {"dim": [{"size": "160"}]}}}}}, {"name": "StatefulPartitionedCall/StatefulPartitionedCall/InceptionV3/Mixed_6d/Branch_3/Conv2d_0b_1x1/Conv2D_weights", "op": "Const", "attr": {"dtype": {"type": "DT_FLOAT"}, "value": {"tensor": {"dtype": "DT_FLOAT", "tensorShape": {"dim": [{"size": "1"}, {"size": "1"}, {"size": "768"}, {"size": "192"}]}}}}}, {"name": "StatefulPartitionedCall/StatefulPartitionedCall/InceptionV3/Mixed_6d/Branch_3/Conv2d_0b_1x1/Conv2D_bn_offset", "op": "Const", "attr": {"value": {"tensor": {"dtype": "DT_FLOAT", "tensorShape": {"dim": [{"size": "192"}]}}}, "dtype": {"type": "DT_FLOAT"}}}, {"name": "StatefulPartitionedCall/StatefulPartitionedCall/InceptionV3/Mixed_6d/Branch_1/Conv2d_0b_1x7/Conv2D_weights", "op": "Const", "attr": {"dtype": {"type": "DT_FLOAT"}, "value": {"tensor": {"dtype": "DT_FLOAT", "tensorShape": {"dim": [{"size": "1"}, {"size": "7"}, {"size": "160"}, {"size": "160"}]}}}}}, {"name": "StatefulPartitionedCall/StatefulPartitionedCall/InceptionV3/Mixed_6d/Branch_1/Conv2d_0b_1x7/Conv2D_bn_offset", "op": "Const", "attr": {"value": {"tensor": {"dtype": "DT_FLOAT", "tensorShape": {"dim": [{"size": "160"}]}}}, "dtype": {"type": "DT_FLOAT"}}}, {"name": "StatefulPartitionedCall/StatefulPartitionedCall/InceptionV3/Mixed_6d/Branch_2/Conv2d_0b_7x1/Conv2D_weights", "op": "Const", "attr": {"value": {"tensor": {"dtype": "DT_FLOAT", "tensorShape": {"dim": [{"size": "7"}, {"size": "1"}, {"size": "160"}, {"size": "160"}]}}}, "dtype": {"type": "DT_FLOAT"}}}, {"name": "StatefulPartitionedCall/StatefulPartitionedCall/InceptionV3/Mixed_6d/Branch_2/Conv2d_0b_7x1/Conv2D_bn_offset", "op": "Const", "attr": {"dtype": {"type": "DT_FLOAT"}, "value": {"tensor": {"dtype": "DT_FLOAT", "tensorShape": {"dim": [{"size": "160"}]}}}}}, {"name": "StatefulPartitionedCall/StatefulPartitionedCall/InceptionV3/Mixed_6d/Branch_1/Conv2d_0c_7x1/Conv2D_weights", "op": "Const", "attr": {"value": {"tensor": {"dtype": "DT_FLOAT", "tensorShape": {"dim": [{"size": "7"}, {"size": "1"}, {"size": "160"}, {"size": "192"}]}}}, "dtype": {"type": "DT_FLOAT"}}}, {"name": "StatefulPartitionedCall/StatefulPartitionedCall/InceptionV3/Mixed_6d/Branch_1/Conv2d_0c_7x1/Conv2D_bn_offset", "op": "Const", "attr": {"value": {"tensor": {"dtype": "DT_FLOAT", "tensorShape": {"dim": [{"size": "192"}]}}}, "dtype": {"type": "DT_FLOAT"}}}, {"name": "StatefulPartitionedCall/StatefulPartitionedCall/InceptionV3/Mixed_6d/Branch_2/Conv2d_0c_1x7/Conv2D_weights", "op": "Const", "attr": {"value": {"tensor": {"dtype": "DT_FLOAT", "tensorShape": {"dim": [{"size": "1"}, {"size": "7"}, {"size": "160"}, {"size": "160"}]}}}, "dtype": {"type": "DT_FLOAT"}}}, {"name": "StatefulPartitionedCall/StatefulPartitionedCall/InceptionV3/Mixed_6d/Branch_2/Conv2d_0c_1x7/Conv2D_bn_offset", "op": "Const", "attr": {"dtype": {"type": "DT_FLOAT"}, "value": {"tensor": {"dtype": "DT_FLOAT", "tensorShape": {"dim": [{"size": "160"}]}}}}}, {"name": "StatefulPartitionedCall/StatefulPartitionedCall/InceptionV3/Mixed_6d/Branch_2/Conv2d_0d_7x1/Conv2D_weights", "op": "Const", "attr": {"dtype": {"type": "DT_FLOAT"}, "value": {"tensor": {"dtype": "DT_FLOAT", "tensorShape": {"dim": [{"size": "7"}, {"size": "1"}, {"size": "160"}, {"size": "160"}]}}}}}, {"name": "StatefulPartitionedCall/StatefulPartitionedCall/InceptionV3/Mixed_6d/Branch_2/Conv2d_0d_7x1/Conv2D_bn_offset", "op": "Const", "attr": {"value": {"tensor": {"dtype": "DT_FLOAT", "tensorShape": {"dim": [{"size": "160"}]}}}, "dtype": {"type": "DT_FLOAT"}}}, {"name": "StatefulPartitionedCall/StatefulPartitionedCall/InceptionV3/Mixed_6d/Branch_2/Conv2d_0e_1x7/Conv2D_weights", "op": "Const", "attr": {"dtype": {"type": "DT_FLOAT"}, "value": {"tensor": {"dtype": "DT_FLOAT", "tensorShape": {"dim": [{"size": "1"}, {"size": "7"}, {"size": "160"}, {"size": "192"}]}}}}}, {"name": "StatefulPartitionedCall/StatefulPartitionedCall/InceptionV3/Mixed_6d/Branch_2/Conv2d_0e_1x7/Conv2D_bn_offset", "op": "Const", "attr": {"value": {"tensor": {"dtype": "DT_FLOAT", "tensorShape": {"dim": [{"size": "192"}]}}}, "dtype": {"type": "DT_FLOAT"}}}, {"name": "StatefulPartitionedCall/StatefulPartitionedCall/InceptionV3/Mixed_6e/Branch_0/Conv2d_0a_1x1/Conv2D_weights", "op": "Const", "attr": {"value": {"tensor": {"dtype": "DT_FLOAT", "tensorShape": {"dim": [{"size": "1"}, {"size": "1"}, {"size": "768"}, {"size": "192"}]}}}, "dtype": {"type": "DT_FLOAT"}}}, {"name": "StatefulPartitionedCall/StatefulPartitionedCall/InceptionV3/Mixed_6e/Branch_0/Conv2d_0a_1x1/Conv2D_bn_offset", "op": "Const", "attr": {"dtype": {"type": "DT_FLOAT"}, "value": {"tensor": {"dtype": "DT_FLOAT", "tensorShape": {"dim": [{"size": "192"}]}}}}}, {"name": "StatefulPartitionedCall/StatefulPartitionedCall/InceptionV3/Mixed_6e/Branch_1/Conv2d_0a_1x1/Conv2D_weights", "op": "Const", "attr": {"dtype": {"type": "DT_FLOAT"}, "value": {"tensor": {"dtype": "DT_FLOAT", "tensorShape": {"dim": [{"size": "1"}, {"size": "1"}, {"size": "768"}, {"size": "192"}]}}}}}, {"name": "StatefulPartitionedCall/StatefulPartitionedCall/InceptionV3/Mixed_6e/Branch_1/Conv2d_0a_1x1/Conv2D_bn_offset", "op": "Const", "attr": {"value": {"tensor": {"dtype": "DT_FLOAT", "tensorShape": {"dim": [{"size": "192"}]}}}, "dtype": {"type": "DT_FLOAT"}}}, {"name": "StatefulPartitionedCall/StatefulPartitionedCall/InceptionV3/Mixed_6e/Branch_2/Conv2d_0a_1x1/Conv2D_weights", "op": "Const", "attr": {"value": {"tensor": {"dtype": "DT_FLOAT", "tensorShape": {"dim": [{"size": "1"}, {"size": "1"}, {"size": "768"}, {"size": "192"}]}}}, "dtype": {"type": "DT_FLOAT"}}}, {"name": "StatefulPartitionedCall/StatefulPartitionedCall/InceptionV3/Mixed_6e/Branch_2/Conv2d_0a_1x1/Conv2D_bn_offset", "op": "Const", "attr": {"value": {"tensor": {"dtype": "DT_FLOAT", "tensorShape": {"dim": [{"size": "192"}]}}}, "dtype": {"type": "DT_FLOAT"}}}, {"name": "StatefulPartitionedCall/StatefulPartitionedCall/InceptionV3/Mixed_6e/Branch_3/Conv2d_0b_1x1/Conv2D_weights", "op": "Const", "attr": {"dtype": {"type": "DT_FLOAT"}, "value": {"tensor": {"dtype": "DT_FLOAT", "tensorShape": {"dim": [{"size": "1"}, {"size": "1"}, {"size": "768"}, {"size": "192"}]}}}}}, {"name": "StatefulPartitionedCall/StatefulPartitionedCall/InceptionV3/Mixed_6e/Branch_3/Conv2d_0b_1x1/Conv2D_bn_offset", "op": "Const", "attr": {"dtype": {"type": "DT_FLOAT"}, "value": {"tensor": {"dtype": "DT_FLOAT", "tensorShape": {"dim": [{"size": "192"}]}}}}}, {"name": "StatefulPartitionedCall/StatefulPartitionedCall/InceptionV3/Mixed_6e/Branch_1/Conv2d_0b_1x7/Conv2D_weights", "op": "Const", "attr": {"dtype": {"type": "DT_FLOAT"}, "value": {"tensor": {"dtype": "DT_FLOAT", "tensorShape": {"dim": [{"size": "1"}, {"size": "7"}, {"size": "192"}, {"size": "192"}]}}}}}, {"name": "StatefulPartitionedCall/StatefulPartitionedCall/InceptionV3/Mixed_6e/Branch_1/Conv2d_0b_1x7/Conv2D_bn_offset", "op": "Const", "attr": {"dtype": {"type": "DT_FLOAT"}, "value": {"tensor": {"dtype": "DT_FLOAT", "tensorShape": {"dim": [{"size": "192"}]}}}}}, {"name": "StatefulPartitionedCall/StatefulPartitionedCall/InceptionV3/Mixed_6e/Branch_2/Conv2d_0b_7x1/Conv2D_weights", "op": "Const", "attr": {"dtype": {"type": "DT_FLOAT"}, "value": {"tensor": {"dtype": "DT_FLOAT", "tensorShape": {"dim": [{"size": "7"}, {"size": "1"}, {"size": "192"}, {"size": "192"}]}}}}}, {"name": "StatefulPartitionedCall/StatefulPartitionedCall/InceptionV3/Mixed_6e/Branch_2/Conv2d_0b_7x1/Conv2D_bn_offset", "op": "Const", "attr": {"dtype": {"type": "DT_FLOAT"}, "value": {"tensor": {"dtype": "DT_FLOAT", "tensorShape": {"dim": [{"size": "192"}]}}}}}, {"name": "StatefulPartitionedCall/StatefulPartitionedCall/InceptionV3/Mixed_6e/Branch_1/Conv2d_0c_7x1/Conv2D_weights", "op": "Const", "attr": {"value": {"tensor": {"dtype": "DT_FLOAT", "tensorShape": {"dim": [{"size": "7"}, {"size": "1"}, {"size": "192"}, {"size": "192"}]}}}, "dtype": {"type": "DT_FLOAT"}}}, {"name": "StatefulPartitionedCall/StatefulPartitionedCall/InceptionV3/Mixed_6e/Branch_1/Conv2d_0c_7x1/Conv2D_bn_offset", "op": "Const", "attr": {"value": {"tensor": {"dtype": "DT_FLOAT", "tensorShape": {"dim": [{"size": "192"}]}}}, "dtype": {"type": "DT_FLOAT"}}}, {"name": "StatefulPartitionedCall/StatefulPartitionedCall/InceptionV3/Mixed_6e/Branch_2/Conv2d_0c_1x7/Conv2D_weights", "op": "Const", "attr": {"dtype": {"type": "DT_FLOAT"}, "value": {"tensor": {"dtype": "DT_FLOAT", "tensorShape": {"dim": [{"size": "1"}, {"size": "7"}, {"size": "192"}, {"size": "192"}]}}}}}, {"name": "StatefulPartitionedCall/StatefulPartitionedCall/InceptionV3/Mixed_6e/Branch_2/Conv2d_0c_1x7/Conv2D_bn_offset", "op": "Const", "attr": {"dtype": {"type": "DT_FLOAT"}, "value": {"tensor": {"dtype": "DT_FLOAT", "tensorShape": {"dim": [{"size": "192"}]}}}}}, {"name": "StatefulPartitionedCall/StatefulPartitionedCall/InceptionV3/Mixed_6e/Branch_2/Conv2d_0d_7x1/Conv2D_weights", "op": "Const", "attr": {"value": {"tensor": {"dtype": "DT_FLOAT", "tensorShape": {"dim": [{"size": "7"}, {"size": "1"}, {"size": "192"}, {"size": "192"}]}}}, "dtype": {"type": "DT_FLOAT"}}}, {"name": "StatefulPartitionedCall/StatefulPartitionedCall/InceptionV3/Mixed_6e/Branch_2/Conv2d_0d_7x1/Conv2D_bn_offset", "op": "Const", "attr": {"dtype": {"type": "DT_FLOAT"}, "value": {"tensor": {"dtype": "DT_FLOAT", "tensorShape": {"dim": [{"size": "192"}]}}}}}, {"name": "StatefulPartitionedCall/StatefulPartitionedCall/InceptionV3/Mixed_6e/Branch_2/Conv2d_0e_1x7/Conv2D_weights", "op": "Const", "attr": {"dtype": {"type": "DT_FLOAT"}, "value": {"tensor": {"dtype": "DT_FLOAT", "tensorShape": {"dim": [{"size": "1"}, {"size": "7"}, {"size": "192"}, {"size": "192"}]}}}}}, {"name": "StatefulPartitionedCall/StatefulPartitionedCall/InceptionV3/Mixed_6e/Branch_2/Conv2d_0e_1x7/Conv2D_bn_offset", "op": "Const", "attr": {"dtype": {"type": "DT_FLOAT"}, "value": {"tensor": {"dtype": "DT_FLOAT", "tensorShape": {"dim": [{"size": "192"}]}}}}}, {"name": "Func/StatefulPartitionedCall/StatefulPartitionedCall/input_control_node/_511", "op": "NoOp", "input": ["^content_image", "^style_image"], "attr": {"_has_manual_control_dependencies": {"b": true}}}, {"name": "StatefulPartitionedCall/StatefulPartitionedCall/InceptionV3/Conv2d_1a_3x3/Relu6", "op": "_FusedConv2D", "input": ["style_image", "StatefulPartitionedCall/StatefulPartitionedCall/InceptionV3/Conv2d_1a_3x3/Conv2D_weights", "StatefulPartitionedCall/StatefulPartitionedCall/InceptionV3/Conv2d_1a_3x3/Conv2D_bn_offset"], "device": "/device:CPU:0", "attr": {"num_args": {"i": "1"}, "use_cudnn_on_gpu": {"b": true}, "fused_ops": {"list": {"s": ["Qmlhc0FkZA==", "UmVsdTY="]}}, "TArgs": {"list": {"type": ["DT_FLOAT"]}}, "dilations": {"list": {"i": ["1", "1", "1", "1"]}}, "explicit_paddings": {"list": {}}, "strides": {"list": {"i": ["1", "2", "2", "1"]}}, "num_host_args": {"i": "0"}, "leakyrelu_alpha": {"f": 0.2}, "padding": {"s": "VkFMSUQ="}, "epsilon": {"f": 0.0}, "T": {"type": "DT_FLOAT"}, "data_format": {"s": "TkhXQw=="}, "filter_format": {"s": "SFdJTw=="}}}, {"name": "Func/StatefulPartitionedCall/StatefulPartitionedCall/input/_962", "op": "Const", "input": ["^Func/StatefulPartitionedCall/StatefulPartitionedCall/input_control_node/_511"], "attr": {"dtype": {"type": "DT_FLOAT"}, "value": {"tensor": {"dtype": "DT_FLOAT", "tensorShape": {"dim": [{"size": "1"}, {"size": "1"}, {"size": "768"}, {"size": "3"}]}}}}}, {"name": "Func/StatefulPartitionedCall/StatefulPartitionedCall/input/_963", "op": "Const", "input": ["^Func/StatefulPartitionedCall/StatefulPartitionedCall/input_control_node/_511"], "attr": {"value": {"tensor": {"dtype": "DT_FLOAT", "tensorShape": {"dim": [{"size": "3"}]}}}, "dtype": {"type": "DT_FLOAT"}}}, {"name": "StatefulPartitionedCall/StatefulPartitionedCall/transformer/expand/conv3/conv/StyleNorm/ExpandDims/dim", "op": "Const", "input": ["^Func/StatefulPartitionedCall/StatefulPartitionedCall/input_control_node/_511"], "attr": {"value": {"tensor": {"dtype": "DT_INT32", "tensorShape": {}}}, "dtype": {"type": "DT_INT32"}}}, {"name": "StatefulPartitionedCall/StatefulPartitionedCall/transformer/expand/conv3/conv/StyleNorm/ExpandDims_1/dim", "op": "Const", "input": ["^Func/StatefulPartitionedCall/StatefulPartitionedCall/input_control_node/_511"], "attr": {"value": {"tensor": {"dtype": "DT_INT32", "tensorShape": {}}}, "dtype": {"type": "DT_INT32"}}}, {"name": "StatefulPartitionedCall/StatefulPartitionedCall/transformer/expand/conv3/strided_slice/stack", "op": "Const", "input": ["^Func/StatefulPartitionedCall/StatefulPartitionedCall/input_control_node/_511"], "attr": {"dtype": {"type": "DT_INT32"}, "value": {"tensor": {"dtype": "DT_INT32", "tensorShape": {"dim": [{"size": "1"}]}}}}}, {"name": "StatefulPartitionedCall/StatefulPartitionedCall/transformer/expand/conv3/strided_slice/stack_1", "op": "Const", "input": ["^Func/StatefulPartitionedCall/StatefulPartitionedCall/input_control_node/_511"], "attr": {"dtype": {"type": "DT_INT32"}, "value": {"tensor": {"dtype": "DT_INT32", "tensorShape": {"dim": [{"size": "1"}]}}}}}, {"name": "StatefulPartitionedCall/StatefulPartitionedCall/transformer/expand/conv3/strided_slice/stack_2", "op": "Const", "input": ["^Func/StatefulPartitionedCall/StatefulPartitionedCall/input_control_node/_511"], "attr": {"dtype": {"type": "DT_INT32"}, "value": {"tensor": {"dtype": "DT_INT32", "tensorShape": {"dim": [{"size": "1"}]}}}}}, {"name": "Func/StatefulPartitionedCall/StatefulPartitionedCall/input/_958", "op": "Const", "input": ["^Func/StatefulPartitionedCall/StatefulPartitionedCall/input_control_node/_511"], "attr": {"value": {"tensor": {"dtype": "DT_FLOAT", "tensorShape": {"dim": [{"size": "1"}, {"size": "1"}, {"size": "768"}, {"size": "32"}]}}}, "dtype": {"type": "DT_FLOAT"}}}, {"name": "Func/StatefulPartitionedCall/StatefulPartitionedCall/input/_959", "op": "Const", "input": ["^Func/StatefulPartitionedCall/StatefulPartitionedCall/input_control_node/_511"], "attr": {"dtype": {"type": "DT_FLOAT"}, "value": {"tensor": {"dtype": "DT_FLOAT", "tensorShape": {"dim": [{"size": "32"}]}}}}}, {"name": "StatefulPartitionedCall/StatefulPartitionedCall/transformer/expand/conv2/conv/StyleNorm/ExpandDims/dim", "op": "Const", "input": ["^Func/StatefulPartitionedCall/StatefulPartitionedCall/input_control_node/_511"], "attr": {"value": {"tensor": {"dtype": "DT_INT32", "tensorShape": {}}}, "dtype": {"type": "DT_INT32"}}}, {"name": "StatefulPartitionedCall/StatefulPartitionedCall/transformer/expand/conv2/conv/StyleNorm/ExpandDims_1/dim", "op": "Const", "input": ["^Func/StatefulPartitionedCall/StatefulPartitionedCall/input_control_node/_511"], "attr": {"value": {"tensor": {"dtype": "DT_INT32", "tensorShape": {}}}, "dtype": {"type": "DT_INT32"}}}, {"name": "StatefulPartitionedCall/StatefulPartitionedCall/transformer/expand/conv2/mul/x", "op": "Const", "input": ["^Func/StatefulPartitionedCall/StatefulPartitionedCall/input_control_node/_511"], "attr": {"dtype": {"type": "DT_INT32"}, "value": {"tensor": {"dtype": "DT_INT32", "tensorShape": {}}}}}, {"name": "StatefulPartitionedCall/StatefulPartitionedCall/transformer/expand/conv2/strided_slice/stack", "op": "Const", "input": ["^Func/StatefulPartitionedCall/StatefulPartitionedCall/input_control_node/_511"], "attr": {"value": {"tensor": {"dtype": "DT_INT32", "tensorShape": {"dim": [{"size": "1"}]}}}, "dtype": {"type": "DT_INT32"}}}, {"name": "StatefulPartitionedCall/StatefulPartitionedCall/transformer/expand/conv2/strided_slice/stack_1", "op": "Const", "input": ["^Func/StatefulPartitionedCall/StatefulPartitionedCall/input_control_node/_511"], "attr": {"value": {"tensor": {"dtype": "DT_INT32", "tensorShape": {"dim": [{"size": "1"}]}}}, "dtype": {"type": "DT_INT32"}}}, {"name": "StatefulPartitionedCall/StatefulPartitionedCall/transformer/expand/conv2/strided_slice/stack_2", "op": "Const", "input": ["^Func/StatefulPartitionedCall/StatefulPartitionedCall/input_control_node/_511"], "attr": {"dtype": {"type": "DT_INT32"}, "value": {"tensor": {"dtype": "DT_INT32", "tensorShape": {"dim": [{"size": "1"}]}}}}}, {"name": "StatefulPartitionedCall/StatefulPartitionedCall/transformer/expand/conv2/mul_1/x", "op": "Const", "input": ["^Func/StatefulPartitionedCall/StatefulPartitionedCall/input_control_node/_511"], "attr": {"value": {"tensor": {"dtype": "DT_INT32", "tensorShape": {}}}, "dtype": {"type": "DT_INT32"}}}, {"name": "Func/StatefulPartitionedCall/StatefulPartitionedCall/input/_954", "op": "Const", "input": ["^Func/StatefulPartitionedCall/StatefulPartitionedCall/input_control_node/_511"], "attr": {"dtype": {"type": "DT_FLOAT"}, "value": {"tensor": {"dtype": "DT_FLOAT", "tensorShape": {"dim": [{"size": "1"}, {"size": "1"}, {"size": "768"}, {"size": "64"}]}}}}}, {"name": "Func/StatefulPartitionedCall/StatefulPartitionedCall/input/_955", "op": "Const", "input": ["^Func/StatefulPartitionedCall/StatefulPartitionedCall/input_control_node/_511"], "attr": {"value": {"tensor": {"dtype": "DT_FLOAT", "tensorShape": {"dim": [{"size": "64"}]}}}, "dtype": {"type": "DT_FLOAT"}}}, {"name": "StatefulPartitionedCall/StatefulPartitionedCall/transformer/expand/conv1/conv/StyleNorm/ExpandDims/dim", "op": "Const", "input": ["^Func/StatefulPartitionedCall/StatefulPartitionedCall/input_control_node/_511"], "attr": {"dtype": {"type": "DT_INT32"}, "value": {"tensor": {"dtype": "DT_INT32", "tensorShape": {}}}}}, {"name": "StatefulPartitionedCall/StatefulPartitionedCall/transformer/expand/conv1/conv/StyleNorm/ExpandDims_1/dim", "op": "Const", "input": ["^Func/StatefulPartitionedCall/StatefulPartitionedCall/input_control_node/_511"], "attr": {"dtype": {"type": "DT_INT32"}, "value": {"tensor": {"dtype": "DT_INT32", "tensorShape": {}}}}}, {"name": "StatefulPartitionedCall/StatefulPartitionedCall/transformer/expand/conv1/mul/x", "op": "Const", "input": ["^Func/StatefulPartitionedCall/StatefulPartitionedCall/input_control_node/_511"], "attr": {"dtype": {"type": "DT_INT32"}, "value": {"tensor": {"dtype": "DT_INT32", "tensorShape": {}}}}}, {"name": "StatefulPartitionedCall/StatefulPartitionedCall/transformer/expand/conv1/strided_slice/stack", "op": "Const", "input": ["^Func/StatefulPartitionedCall/StatefulPartitionedCall/input_control_node/_511"], "attr": {"dtype": {"type": "DT_INT32"}, "value": {"tensor": {"dtype": "DT_INT32", "tensorShape": {"dim": [{"size": "1"}]}}}}}, {"name": "StatefulPartitionedCall/StatefulPartitionedCall/transformer/expand/conv1/strided_slice/stack_1", "op": "Const", "input": ["^Func/StatefulPartitionedCall/StatefulPartitionedCall/input_control_node/_511"], "attr": {"value": {"tensor": {"dtype": "DT_INT32", "tensorShape": {"dim": [{"size": "1"}]}}}, "dtype": {"type": "DT_INT32"}}}, {"name": "StatefulPartitionedCall/StatefulPartitionedCall/transformer/expand/conv1/strided_slice/stack_2", "op": "Const", "input": ["^Func/StatefulPartitionedCall/StatefulPartitionedCall/input_control_node/_511"], "attr": {"value": {"tensor": {"dtype": "DT_INT32", "tensorShape": {"dim": [{"size": "1"}]}}}, "dtype": {"type": "DT_INT32"}}}, {"name": "StatefulPartitionedCall/StatefulPartitionedCall/transformer/expand/conv1/mul_1/x", "op": "Const", "input": ["^Func/StatefulPartitionedCall/StatefulPartitionedCall/input_control_node/_511"], "attr": {"dtype": {"type": "DT_INT32"}, "value": {"tensor": {"dtype": "DT_INT32", "tensorShape": {}}}}}, {"name": "Func/StatefulPartitionedCall/StatefulPartitionedCall/input/_950", "op": "Const", "input": ["^Func/StatefulPartitionedCall/StatefulPartitionedCall/input_control_node/_511"], "attr": {"value": {"tensor": {"dtype": "DT_FLOAT", "tensorShape": {"dim": [{"size": "1"}, {"size": "1"}, {"size": "768"}, {"size": "128"}]}}}, "dtype": {"type": "DT_FLOAT"}}}, {"name": "Func/StatefulPartitionedCall/StatefulPartitionedCall/input/_951", "op": "Const", "input": ["^Func/StatefulPartitionedCall/StatefulPartitionedCall/input_control_node/_511"], "attr": {"value": {"tensor": {"dtype": "DT_FLOAT", "tensorShape": {"dim": [{"size": "128"}]}}}, "dtype": {"type": "DT_FLOAT"}}}, {"name": "StatefulPartitionedCall/StatefulPartitionedCall/transformer/residual/residual20/conv2/StyleNorm/ExpandDims/dim", "op": "Const", "input": ["^Func/StatefulPartitionedCall/StatefulPartitionedCall/input_control_node/_511"], "attr": {"dtype": {"type": "DT_INT32"}, "value": {"tensor": {"dtype": "DT_INT32", "tensorShape": {}}}}}, {"name": "StatefulPartitionedCall/StatefulPartitionedCall/transformer/residual/residual20/conv2/StyleNorm/ExpandDims_1/dim", "op": "Const", "input": ["^Func/StatefulPartitionedCall/StatefulPartitionedCall/input_control_node/_511"], "attr": {"dtype": {"type": "DT_INT32"}, "value": {"tensor": {"dtype": "DT_INT32", "tensorShape": {}}}}}, {"name": "Func/StatefulPartitionedCall/StatefulPartitionedCall/input/_946", "op": "Const", "input": ["^Func/StatefulPartitionedCall/StatefulPartitionedCall/input_control_node/_511"], "attr": {"dtype": {"type": "DT_FLOAT"}, "value": {"tensor": {"dtype": "DT_FLOAT", "tensorShape": {"dim": [{"size": "1"}, {"size": "1"}, {"size": "768"}, {"size": "128"}]}}}}}, {"name": "Func/StatefulPartitionedCall/StatefulPartitionedCall/input/_947", "op": "Const", "input": ["^Func/StatefulPartitionedCall/StatefulPartitionedCall/input_control_node/_511"], "attr": {"dtype": {"type": "DT_FLOAT"}, "value": {"tensor": {"dtype": "DT_FLOAT", "tensorShape": {"dim": [{"size": "128"}]}}}}}, {"name": "StatefulPartitionedCall/StatefulPartitionedCall/transformer/residual/residual20/conv1/StyleNorm/ExpandDims/dim", "op": "Const", "input": ["^Func/StatefulPartitionedCall/StatefulPartitionedCall/input_control_node/_511"], "attr": {"dtype": {"type": "DT_INT32"}, "value": {"tensor": {"dtype": "DT_INT32", "tensorShape": {}}}}}, {"name": "StatefulPartitionedCall/StatefulPartitionedCall/transformer/residual/residual20/conv1/StyleNorm/ExpandDims_1/dim", "op": "Const", "input": ["^Func/StatefulPartitionedCall/StatefulPartitionedCall/input_control_node/_511"], "attr": {"value": {"tensor": {"dtype": "DT_INT32", "tensorShape": {}}}, "dtype": {"type": "DT_INT32"}}}, {"name": "Func/StatefulPartitionedCall/StatefulPartitionedCall/input/_942", "op": "Const", "input": ["^Func/StatefulPartitionedCall/StatefulPartitionedCall/input_control_node/_511"], "attr": {"value": {"tensor": {"dtype": "DT_FLOAT", "tensorShape": {"dim": [{"size": "1"}, {"size": "1"}, {"size": "768"}, {"size": "128"}]}}}, "dtype": {"type": "DT_FLOAT"}}}, {"name": "Func/StatefulPartitionedCall/StatefulPartitionedCall/input/_943", "op": "Const", "input": ["^Func/StatefulPartitionedCall/StatefulPartitionedCall/input_control_node/_511"], "attr": {"value": {"tensor": {"dtype": "DT_FLOAT", "tensorShape": {"dim": [{"size": "128"}]}}}, "dtype": {"type": "DT_FLOAT"}}}, {"name": "StatefulPartitionedCall/StatefulPartitionedCall/transformer/residual/residual19/conv2/StyleNorm/ExpandDims/dim", "op": "Const", "input": ["^Func/StatefulPartitionedCall/StatefulPartitionedCall/input_control_node/_511"], "attr": {"value": {"tensor": {"dtype": "DT_INT32", "tensorShape": {}}}, "dtype": {"type": "DT_INT32"}}}, {"name": "StatefulPartitionedCall/StatefulPartitionedCall/transformer/residual/residual19/conv2/StyleNorm/ExpandDims_1/dim", "op": "Const", "input": ["^Func/StatefulPartitionedCall/StatefulPartitionedCall/input_control_node/_511"], "attr": {"value": {"tensor": {"dtype": "DT_INT32", "tensorShape": {}}}, "dtype": {"type": "DT_INT32"}}}, {"name": "Func/StatefulPartitionedCall/StatefulPartitionedCall/input/_938", "op": "Const", "input": ["^Func/StatefulPartitionedCall/StatefulPartitionedCall/input_control_node/_511"], "attr": {"value": {"tensor": {"dtype": "DT_FLOAT", "tensorShape": {"dim": [{"size": "1"}, {"size": "1"}, {"size": "768"}, {"size": "128"}]}}}, "dtype": {"type": "DT_FLOAT"}}}, {"name": "Func/StatefulPartitionedCall/StatefulPartitionedCall/input/_939", "op": "Const", "input": ["^Func/StatefulPartitionedCall/StatefulPartitionedCall/input_control_node/_511"], "attr": {"value": {"tensor": {"dtype": "DT_FLOAT", "tensorShape": {"dim": [{"size": "128"}]}}}, "dtype": {"type": "DT_FLOAT"}}}, {"name": "StatefulPartitionedCall/StatefulPartitionedCall/transformer/residual/residual19/conv1/StyleNorm/ExpandDims/dim", "op": "Const", "input": ["^Func/StatefulPartitionedCall/StatefulPartitionedCall/input_control_node/_511"], "attr": {"dtype": {"type": "DT_INT32"}, "value": {"tensor": {"dtype": "DT_INT32", "tensorShape": {}}}}}, {"name": "StatefulPartitionedCall/StatefulPartitionedCall/transformer/residual/residual19/conv1/StyleNorm/ExpandDims_1/dim", "op": "Const", "input": ["^Func/StatefulPartitionedCall/StatefulPartitionedCall/input_control_node/_511"], "attr": {"dtype": {"type": "DT_INT32"}, "value": {"tensor": {"dtype": "DT_INT32", "tensorShape": {}}}}}, {"name": "Func/StatefulPartitionedCall/StatefulPartitionedCall/input/_934", "op": "Const", "input": ["^Func/StatefulPartitionedCall/StatefulPartitionedCall/input_control_node/_511"], "attr": {"value": {"tensor": {"dtype": "DT_FLOAT", "tensorShape": {"dim": [{"size": "1"}, {"size": "1"}, {"size": "768"}, {"size": "128"}]}}}, "dtype": {"type": "DT_FLOAT"}}}, {"name": "Func/StatefulPartitionedCall/StatefulPartitionedCall/input/_935", "op": "Const", "input": ["^Func/StatefulPartitionedCall/StatefulPartitionedCall/input_control_node/_511"], "attr": {"value": {"tensor": {"dtype": "DT_FLOAT", "tensorShape": {"dim": [{"size": "128"}]}}}, "dtype": {"type": "DT_FLOAT"}}}, {"name": "StatefulPartitionedCall/StatefulPartitionedCall/transformer/residual/residual18/conv2/StyleNorm/ExpandDims/dim", "op": "Const", "input": ["^Func/StatefulPartitionedCall/StatefulPartitionedCall/input_control_node/_511"], "attr": {"dtype": {"type": "DT_INT32"}, "value": {"tensor": {"dtype": "DT_INT32", "tensorShape": {}}}}}, {"name": "StatefulPartitionedCall/StatefulPartitionedCall/transformer/residual/residual18/conv2/StyleNorm/ExpandDims_1/dim", "op": "Const", "input": ["^Func/StatefulPartitionedCall/StatefulPartitionedCall/input_control_node/_511"], "attr": {"value": {"tensor": {"dtype": "DT_INT32", "tensorShape": {}}}, "dtype": {"type": "DT_INT32"}}}, {"name": "Func/StatefulPartitionedCall/StatefulPartitionedCall/input/_930", "op": "Const", "input": ["^Func/StatefulPartitionedCall/StatefulPartitionedCall/input_control_node/_511"], "attr": {"value": {"tensor": {"dtype": "DT_FLOAT", "tensorShape": {"dim": [{"size": "1"}, {"size": "1"}, {"size": "768"}, {"size": "128"}]}}}, "dtype": {"type": "DT_FLOAT"}}}, {"name": "Func/StatefulPartitionedCall/StatefulPartitionedCall/input/_931", "op": "Const", "input": ["^Func/StatefulPartitionedCall/StatefulPartitionedCall/input_control_node/_511"], "attr": {"dtype": {"type": "DT_FLOAT"}, "value": {"tensor": {"dtype": "DT_FLOAT", "tensorShape": {"dim": [{"size": "128"}]}}}}}, {"name": "StatefulPartitionedCall/StatefulPartitionedCall/transformer/residual/residual18/conv1/StyleNorm/ExpandDims/dim", "op": "Const", "input": ["^Func/StatefulPartitionedCall/StatefulPartitionedCall/input_control_node/_511"], "attr": {"dtype": {"type": "DT_INT32"}, "value": {"tensor": {"dtype": "DT_INT32", "tensorShape": {}}}}}, {"name": "StatefulPartitionedCall/StatefulPartitionedCall/transformer/residual/residual18/conv1/StyleNorm/ExpandDims_1/dim", "op": "Const", "input": ["^Func/StatefulPartitionedCall/StatefulPartitionedCall/input_control_node/_511"], "attr": {"value": {"tensor": {"dtype": "DT_INT32", "tensorShape": {}}}, "dtype": {"type": "DT_INT32"}}}, {"name": "Func/StatefulPartitionedCall/StatefulPartitionedCall/input/_926", "op": "Const", "input": ["^Func/StatefulPartitionedCall/StatefulPartitionedCall/input_control_node/_511"], "attr": {"dtype": {"type": "DT_FLOAT"}, "value": {"tensor": {"dtype": "DT_FLOAT", "tensorShape": {"dim": [{"size": "1"}, {"size": "1"}, {"size": "768"}, {"size": "128"}]}}}}}, {"name": "Func/StatefulPartitionedCall/StatefulPartitionedCall/input/_927", "op": "Const", "input": ["^Func/StatefulPartitionedCall/StatefulPartitionedCall/input_control_node/_511"], "attr": {"value": {"tensor": {"dtype": "DT_FLOAT", "tensorShape": {"dim": [{"size": "128"}]}}}, "dtype": {"type": "DT_FLOAT"}}}, {"name": "StatefulPartitionedCall/StatefulPartitionedCall/transformer/residual/residual17/conv2/StyleNorm/ExpandDims/dim", "op": "Const", "input": ["^Func/StatefulPartitionedCall/StatefulPartitionedCall/input_control_node/_511"], "attr": {"dtype": {"type": "DT_INT32"}, "value": {"tensor": {"dtype": "DT_INT32", "tensorShape": {}}}}}, {"name": "StatefulPartitionedCall/StatefulPartitionedCall/transformer/residual/residual17/conv2/StyleNorm/ExpandDims_1/dim", "op": "Const", "input": ["^Func/StatefulPartitionedCall/StatefulPartitionedCall/input_control_node/_511"], "attr": {"dtype": {"type": "DT_INT32"}, "value": {"tensor": {"dtype": "DT_INT32", "tensorShape": {}}}}}, {"name": "Func/StatefulPartitionedCall/StatefulPartitionedCall/input/_922", "op": "Const", "input": ["^Func/StatefulPartitionedCall/StatefulPartitionedCall/input_control_node/_511"], "attr": {"dtype": {"type": "DT_FLOAT"}, "value": {"tensor": {"dtype": "DT_FLOAT", "tensorShape": {"dim": [{"size": "1"}, {"size": "1"}, {"size": "768"}, {"size": "128"}]}}}}}, {"name": "Func/StatefulPartitionedCall/StatefulPartitionedCall/input/_923", "op": "Const", "input": ["^Func/StatefulPartitionedCall/StatefulPartitionedCall/input_control_node/_511"], "attr": {"value": {"tensor": {"dtype": "DT_FLOAT", "tensorShape": {"dim": [{"size": "128"}]}}}, "dtype": {"type": "DT_FLOAT"}}}, {"name": "StatefulPartitionedCall/StatefulPartitionedCall/transformer/residual/residual17/conv1/StyleNorm/ExpandDims/dim", "op": "Const", "input": ["^Func/StatefulPartitionedCall/StatefulPartitionedCall/input_control_node/_511"], "attr": {"value": {"tensor": {"dtype": "DT_INT32", "tensorShape": {}}}, "dtype": {"type": "DT_INT32"}}}, {"name": "StatefulPartitionedCall/StatefulPartitionedCall/transformer/residual/residual17/conv1/StyleNorm/ExpandDims_1/dim", "op": "Const", "input": ["^Func/StatefulPartitionedCall/StatefulPartitionedCall/input_control_node/_511"], "attr": {"dtype": {"type": "DT_INT32"}, "value": {"tensor": {"dtype": "DT_INT32", "tensorShape": {}}}}}, {"name": "Func/StatefulPartitionedCall/StatefulPartitionedCall/input/_918", "op": "Const", "input": ["^Func/StatefulPartitionedCall/StatefulPartitionedCall/input_control_node/_511"], "attr": {"value": {"tensor": {"dtype": "DT_FLOAT", "tensorShape": {"dim": [{"size": "1"}, {"size": "1"}, {"size": "768"}, {"size": "128"}]}}}, "dtype": {"type": "DT_FLOAT"}}}, {"name": "Func/StatefulPartitionedCall/StatefulPartitionedCall/input/_919", "op": "Const", "input": ["^Func/StatefulPartitionedCall/StatefulPartitionedCall/input_control_node/_511"], "attr": {"value": {"tensor": {"dtype": "DT_FLOAT", "tensorShape": {"dim": [{"size": "128"}]}}}, "dtype": {"type": "DT_FLOAT"}}}, {"name": "StatefulPartitionedCall/StatefulPartitionedCall/transformer/residual/residual16/conv2/StyleNorm/ExpandDims/dim", "op": "Const", "input": ["^Func/StatefulPartitionedCall/StatefulPartitionedCall/input_control_node/_511"], "attr": {"value": {"tensor": {"dtype": "DT_INT32", "tensorShape": {}}}, "dtype": {"type": "DT_INT32"}}}, {"name": "StatefulPartitionedCall/StatefulPartitionedCall/transformer/residual/residual16/conv2/StyleNorm/ExpandDims_1/dim", "op": "Const", "input": ["^Func/StatefulPartitionedCall/StatefulPartitionedCall/input_control_node/_511"], "attr": {"value": {"tensor": {"dtype": "DT_INT32", "tensorShape": {}}}, "dtype": {"type": "DT_INT32"}}}, {"name": "Func/StatefulPartitionedCall/StatefulPartitionedCall/input/_914", "op": "Const", "input": ["^Func/StatefulPartitionedCall/StatefulPartitionedCall/input_control_node/_511"], "attr": {"dtype": {"type": "DT_FLOAT"}, "value": {"tensor": {"dtype": "DT_FLOAT", "tensorShape": {"dim": [{"size": "1"}, {"size": "1"}, {"size": "768"}, {"size": "128"}]}}}}}, {"name": "Func/StatefulPartitionedCall/StatefulPartitionedCall/input/_915", "op": "Const", "input": ["^Func/StatefulPartitionedCall/StatefulPartitionedCall/input_control_node/_511"], "attr": {"dtype": {"type": "DT_FLOAT"}, "value": {"tensor": {"dtype": "DT_FLOAT", "tensorShape": {"dim": [{"size": "128"}]}}}}}, {"name": "StatefulPartitionedCall/StatefulPartitionedCall/transformer/residual/residual16/conv1/StyleNorm/ExpandDims/dim", "op": "Const", "input": ["^Func/StatefulPartitionedCall/StatefulPartitionedCall/input_control_node/_511"], "attr": {"value": {"tensor": {"dtype": "DT_INT32", "tensorShape": {}}}, "dtype": {"type": "DT_INT32"}}}, {"name": "StatefulPartitionedCall/StatefulPartitionedCall/transformer/residual/residual16/conv1/StyleNorm/ExpandDims_1/dim", "op": "Const", "input": ["^Func/StatefulPartitionedCall/StatefulPartitionedCall/input_control_node/_511"], "attr": {"value": {"tensor": {"dtype": "DT_INT32", "tensorShape": {}}}, "dtype": {"type": "DT_INT32"}}}, {"name": "Func/StatefulPartitionedCall/StatefulPartitionedCall/input/_910", "op": "Const", "input": ["^Func/StatefulPartitionedCall/StatefulPartitionedCall/input_control_node/_511"], "attr": {"dtype": {"type": "DT_FLOAT"}, "value": {"tensor": {"dtype": "DT_FLOAT", "tensorShape": {"dim": [{"size": "1"}, {"size": "1"}, {"size": "768"}, {"size": "128"}]}}}}}, {"name": "Func/StatefulPartitionedCall/StatefulPartitionedCall/input/_911", "op": "Const", "input": ["^Func/StatefulPartitionedCall/StatefulPartitionedCall/input_control_node/_511"], "attr": {"dtype": {"type": "DT_FLOAT"}, "value": {"tensor": {"dtype": "DT_FLOAT", "tensorShape": {"dim": [{"size": "128"}]}}}}}, {"name": "StatefulPartitionedCall/StatefulPartitionedCall/transformer/residual/residual15/conv2/StyleNorm/ExpandDims/dim", "op": "Const", "input": ["^Func/StatefulPartitionedCall/StatefulPartitionedCall/input_control_node/_511"], "attr": {"value": {"tensor": {"dtype": "DT_INT32", "tensorShape": {}}}, "dtype": {"type": "DT_INT32"}}}, {"name": "StatefulPartitionedCall/StatefulPartitionedCall/transformer/residual/residual15/conv2/StyleNorm/ExpandDims_1/dim", "op": "Const", "input": ["^Func/StatefulPartitionedCall/StatefulPartitionedCall/input_control_node/_511"], "attr": {"dtype": {"type": "DT_INT32"}, "value": {"tensor": {"dtype": "DT_INT32", "tensorShape": {}}}}}, {"name": "Func/StatefulPartitionedCall/StatefulPartitionedCall/input/_906", "op": "Const", "input": ["^Func/StatefulPartitionedCall/StatefulPartitionedCall/input_control_node/_511"], "attr": {"dtype": {"type": "DT_FLOAT"}, "value": {"tensor": {"dtype": "DT_FLOAT", "tensorShape": {"dim": [{"size": "1"}, {"size": "1"}, {"size": "768"}, {"size": "128"}]}}}}}, {"name": "Func/StatefulPartitionedCall/StatefulPartitionedCall/input/_907", "op": "Const", "input": ["^Func/StatefulPartitionedCall/StatefulPartitionedCall/input_control_node/_511"], "attr": {"dtype": {"type": "DT_FLOAT"}, "value": {"tensor": {"dtype": "DT_FLOAT", "tensorShape": {"dim": [{"size": "128"}]}}}}}, {"name": "StatefulPartitionedCall/StatefulPartitionedCall/transformer/residual/residual15/conv1/StyleNorm/ExpandDims/dim", "op": "Const", "input": ["^Func/StatefulPartitionedCall/StatefulPartitionedCall/input_control_node/_511"], "attr": {"dtype": {"type": "DT_INT32"}, "value": {"tensor": {"dtype": "DT_INT32", "tensorShape": {}}}}}, {"name": "StatefulPartitionedCall/StatefulPartitionedCall/transformer/residual/residual15/conv1/StyleNorm/ExpandDims_1/dim", "op": "Const", "input": ["^Func/StatefulPartitionedCall/StatefulPartitionedCall/input_control_node/_511"], "attr": {"value": {"tensor": {"dtype": "DT_INT32", "tensorShape": {}}}, "dtype": {"type": "DT_INT32"}}}, {"name": "Func/StatefulPartitionedCall/StatefulPartitionedCall/input/_902", "op": "Const", "input": ["^Func/StatefulPartitionedCall/StatefulPartitionedCall/input_control_node/_511"], "attr": {"value": {"tensor": {"dtype": "DT_FLOAT", "tensorShape": {"dim": [{"size": "1"}, {"size": "1"}, {"size": "768"}, {"size": "128"}]}}}, "dtype": {"type": "DT_FLOAT"}}}, {"name": "Func/StatefulPartitionedCall/StatefulPartitionedCall/input/_903", "op": "Const", "input": ["^Func/StatefulPartitionedCall/StatefulPartitionedCall/input_control_node/_511"], "attr": {"value": {"tensor": {"dtype": "DT_FLOAT", "tensorShape": {"dim": [{"size": "128"}]}}}, "dtype": {"type": "DT_FLOAT"}}}, {"name": "StatefulPartitionedCall/StatefulPartitionedCall/transformer/residual/residual14/conv2/StyleNorm/ExpandDims/dim", "op": "Const", "input": ["^Func/StatefulPartitionedCall/StatefulPartitionedCall/input_control_node/_511"], "attr": {"value": {"tensor": {"dtype": "DT_INT32", "tensorShape": {}}}, "dtype": {"type": "DT_INT32"}}}, {"name": "StatefulPartitionedCall/StatefulPartitionedCall/transformer/residual/residual14/conv2/StyleNorm/ExpandDims_1/dim", "op": "Const", "input": ["^Func/StatefulPartitionedCall/StatefulPartitionedCall/input_control_node/_511"], "attr": {"dtype": {"type": "DT_INT32"}, "value": {"tensor": {"dtype": "DT_INT32", "tensorShape": {}}}}}, {"name": "Func/StatefulPartitionedCall/StatefulPartitionedCall/input/_898", "op": "Const", "input": ["^Func/StatefulPartitionedCall/StatefulPartitionedCall/input_control_node/_511"], "attr": {"dtype": {"type": "DT_FLOAT"}, "value": {"tensor": {"dtype": "DT_FLOAT", "tensorShape": {"dim": [{"size": "1"}, {"size": "1"}, {"size": "768"}, {"size": "128"}]}}}}}, {"name": "Func/StatefulPartitionedCall/StatefulPartitionedCall/input/_899", "op": "Const", "input": ["^Func/StatefulPartitionedCall/StatefulPartitionedCall/input_control_node/_511"], "attr": {"value": {"tensor": {"dtype": "DT_FLOAT", "tensorShape": {"dim": [{"size": "128"}]}}}, "dtype": {"type": "DT_FLOAT"}}}, {"name": "StatefulPartitionedCall/StatefulPartitionedCall/transformer/residual/residual14/conv1/StyleNorm/ExpandDims/dim", "op": "Const", "input": ["^Func/StatefulPartitionedCall/StatefulPartitionedCall/input_control_node/_511"], "attr": {"value": {"tensor": {"dtype": "DT_INT32", "tensorShape": {}}}, "dtype": {"type": "DT_INT32"}}}, {"name": "StatefulPartitionedCall/StatefulPartitionedCall/transformer/residual/residual14/conv1/StyleNorm/ExpandDims_1/dim", "op": "Const", "input": ["^Func/StatefulPartitionedCall/StatefulPartitionedCall/input_control_node/_511"], "attr": {"dtype": {"type": "DT_INT32"}, "value": {"tensor": {"dtype": "DT_INT32", "tensorShape": {}}}}}, {"name": "Func/StatefulPartitionedCall/StatefulPartitionedCall/input/_894", "op": "Const", "input": ["^Func/StatefulPartitionedCall/StatefulPartitionedCall/input_control_node/_511"], "attr": {"value": {"tensor": {"dtype": "DT_FLOAT", "tensorShape": {"dim": [{"size": "1"}, {"size": "1"}, {"size": "768"}, {"size": "128"}]}}}, "dtype": {"type": "DT_FLOAT"}}}, {"name": "Func/StatefulPartitionedCall/StatefulPartitionedCall/input/_895", "op": "Const", "input": ["^Func/StatefulPartitionedCall/StatefulPartitionedCall/input_control_node/_511"], "attr": {"value": {"tensor": {"dtype": "DT_FLOAT", "tensorShape": {"dim": [{"size": "128"}]}}}, "dtype": {"type": "DT_FLOAT"}}}, {"name": "StatefulPartitionedCall/StatefulPartitionedCall/transformer/residual/residual13/conv2/StyleNorm/ExpandDims/dim", "op": "Const", "input": ["^Func/StatefulPartitionedCall/StatefulPartitionedCall/input_control_node/_511"], "attr": {"dtype": {"type": "DT_INT32"}, "value": {"tensor": {"dtype": "DT_INT32", "tensorShape": {}}}}}, {"name": "StatefulPartitionedCall/StatefulPartitionedCall/transformer/residual/residual13/conv2/StyleNorm/ExpandDims_1/dim", "op": "Const", "input": ["^Func/StatefulPartitionedCall/StatefulPartitionedCall/input_control_node/_511"], "attr": {"dtype": {"type": "DT_INT32"}, "value": {"tensor": {"dtype": "DT_INT32", "tensorShape": {}}}}}, {"name": "Func/StatefulPartitionedCall/StatefulPartitionedCall/input/_890", "op": "Const", "input": ["^Func/StatefulPartitionedCall/StatefulPartitionedCall/input_control_node/_511"], "attr": {"value": {"tensor": {"dtype": "DT_FLOAT", "tensorShape": {"dim": [{"size": "1"}, {"size": "1"}, {"size": "768"}, {"size": "128"}]}}}, "dtype": {"type": "DT_FLOAT"}}}, {"name": "Func/StatefulPartitionedCall/StatefulPartitionedCall/input/_891", "op": "Const", "input": ["^Func/StatefulPartitionedCall/StatefulPartitionedCall/input_control_node/_511"], "attr": {"value": {"tensor": {"dtype": "DT_FLOAT", "tensorShape": {"dim": [{"size": "128"}]}}}, "dtype": {"type": "DT_FLOAT"}}}, {"name": "StatefulPartitionedCall/StatefulPartitionedCall/transformer/residual/residual13/conv1/StyleNorm/ExpandDims/dim", "op": "Const", "input": ["^Func/StatefulPartitionedCall/StatefulPartitionedCall/input_control_node/_511"], "attr": {"value": {"tensor": {"dtype": "DT_INT32", "tensorShape": {}}}, "dtype": {"type": "DT_INT32"}}}, {"name": "StatefulPartitionedCall/StatefulPartitionedCall/transformer/residual/residual13/conv1/StyleNorm/ExpandDims_1/dim", "op": "Const", "input": ["^Func/StatefulPartitionedCall/StatefulPartitionedCall/input_control_node/_511"], "attr": {"value": {"tensor": {"dtype": "DT_INT32", "tensorShape": {}}}, "dtype": {"type": "DT_INT32"}}}, {"name": "Func/StatefulPartitionedCall/StatefulPartitionedCall/input/_886", "op": "Const", "input": ["^Func/StatefulPartitionedCall/StatefulPartitionedCall/input_control_node/_511"], "attr": {"value": {"tensor": {"dtype": "DT_FLOAT", "tensorShape": {"dim": [{"size": "1"}, {"size": "1"}, {"size": "768"}, {"size": "128"}]}}}, "dtype": {"type": "DT_FLOAT"}}}, {"name": "Func/StatefulPartitionedCall/StatefulPartitionedCall/input/_887", "op": "Const", "input": ["^Func/StatefulPartitionedCall/StatefulPartitionedCall/input_control_node/_511"], "attr": {"dtype": {"type": "DT_FLOAT"}, "value": {"tensor": {"dtype": "DT_FLOAT", "tensorShape": {"dim": [{"size": "128"}]}}}}}, {"name": "StatefulPartitionedCall/StatefulPartitionedCall/transformer/residual/residual12/conv2/StyleNorm/ExpandDims/dim", "op": "Const", "input": ["^Func/StatefulPartitionedCall/StatefulPartitionedCall/input_control_node/_511"], "attr": {"dtype": {"type": "DT_INT32"}, "value": {"tensor": {"dtype": "DT_INT32", "tensorShape": {}}}}}, {"name": "StatefulPartitionedCall/StatefulPartitionedCall/transformer/residual/residual12/conv2/StyleNorm/ExpandDims_1/dim", "op": "Const", "input": ["^Func/StatefulPartitionedCall/StatefulPartitionedCall/input_control_node/_511"], "attr": {"dtype": {"type": "DT_INT32"}, "value": {"tensor": {"dtype": "DT_INT32", "tensorShape": {}}}}}, {"name": "Func/StatefulPartitionedCall/StatefulPartitionedCall/input/_882", "op": "Const", "input": ["^Func/StatefulPartitionedCall/StatefulPartitionedCall/input_control_node/_511"], "attr": {"value": {"tensor": {"dtype": "DT_FLOAT", "tensorShape": {"dim": [{"size": "1"}, {"size": "1"}, {"size": "768"}, {"size": "128"}]}}}, "dtype": {"type": "DT_FLOAT"}}}, {"name": "Func/StatefulPartitionedCall/StatefulPartitionedCall/input/_883", "op": "Const", "input": ["^Func/StatefulPartitionedCall/StatefulPartitionedCall/input_control_node/_511"], "attr": {"value": {"tensor": {"dtype": "DT_FLOAT", "tensorShape": {"dim": [{"size": "128"}]}}}, "dtype": {"type": "DT_FLOAT"}}}, {"name": "StatefulPartitionedCall/StatefulPartitionedCall/transformer/residual/residual12/conv1/StyleNorm/ExpandDims/dim", "op": "Const", "input": ["^Func/StatefulPartitionedCall/StatefulPartitionedCall/input_control_node/_511"], "attr": {"dtype": {"type": "DT_INT32"}, "value": {"tensor": {"dtype": "DT_INT32", "tensorShape": {}}}}}, {"name": "StatefulPartitionedCall/StatefulPartitionedCall/transformer/residual/residual12/conv1/StyleNorm/ExpandDims_1/dim", "op": "Const", "input": ["^Func/StatefulPartitionedCall/StatefulPartitionedCall/input_control_node/_511"], "attr": {"dtype": {"type": "DT_INT32"}, "value": {"tensor": {"dtype": "DT_INT32", "tensorShape": {}}}}}, {"name": "Func/StatefulPartitionedCall/StatefulPartitionedCall/input/_878", "op": "Const", "input": ["^Func/StatefulPartitionedCall/StatefulPartitionedCall/input_control_node/_511"], "attr": {"dtype": {"type": "DT_FLOAT"}, "value": {"tensor": {"dtype": "DT_FLOAT", "tensorShape": {"dim": [{"size": "1"}, {"size": "1"}, {"size": "768"}, {"size": "128"}]}}}}}, {"name": "Func/StatefulPartitionedCall/StatefulPartitionedCall/input/_879", "op": "Const", "input": ["^Func/StatefulPartitionedCall/StatefulPartitionedCall/input_control_node/_511"], "attr": {"dtype": {"type": "DT_FLOAT"}, "value": {"tensor": {"dtype": "DT_FLOAT", "tensorShape": {"dim": [{"size": "128"}]}}}}}, {"name": "StatefulPartitionedCall/StatefulPartitionedCall/transformer/residual/residual11/conv2/StyleNorm/ExpandDims/dim", "op": "Const", "input": ["^Func/StatefulPartitionedCall/StatefulPartitionedCall/input_control_node/_511"], "attr": {"value": {"tensor": {"dtype": "DT_INT32", "tensorShape": {}}}, "dtype": {"type": "DT_INT32"}}}, {"name": "StatefulPartitionedCall/StatefulPartitionedCall/transformer/residual/residual11/conv2/StyleNorm/ExpandDims_1/dim", "op": "Const", "input": ["^Func/StatefulPartitionedCall/StatefulPartitionedCall/input_control_node/_511"], "attr": {"dtype": {"type": "DT_INT32"}, "value": {"tensor": {"dtype": "DT_INT32", "tensorShape": {}}}}}, {"name": "Func/StatefulPartitionedCall/StatefulPartitionedCall/input/_874", "op": "Const", "input": ["^Func/StatefulPartitionedCall/StatefulPartitionedCall/input_control_node/_511"], "attr": {"value": {"tensor": {"dtype": "DT_FLOAT", "tensorShape": {"dim": [{"size": "1"}, {"size": "1"}, {"size": "768"}, {"size": "128"}]}}}, "dtype": {"type": "DT_FLOAT"}}}, {"name": "Func/StatefulPartitionedCall/StatefulPartitionedCall/input/_875", "op": "Const", "input": ["^Func/StatefulPartitionedCall/StatefulPartitionedCall/input_control_node/_511"], "attr": {"dtype": {"type": "DT_FLOAT"}, "value": {"tensor": {"dtype": "DT_FLOAT", "tensorShape": {"dim": [{"size": "128"}]}}}}}, {"name": "StatefulPartitionedCall/StatefulPartitionedCall/transformer/residual/residual11/conv1/StyleNorm/ExpandDims/dim", "op": "Const", "input": ["^Func/StatefulPartitionedCall/StatefulPartitionedCall/input_control_node/_511"], "attr": {"dtype": {"type": "DT_INT32"}, "value": {"tensor": {"dtype": "DT_INT32", "tensorShape": {}}}}}, {"name": "StatefulPartitionedCall/StatefulPartitionedCall/transformer/residual/residual11/conv1/StyleNorm/ExpandDims_1/dim", "op": "Const", "input": ["^Func/StatefulPartitionedCall/StatefulPartitionedCall/input_control_node/_511"], "attr": {"dtype": {"type": "DT_INT32"}, "value": {"tensor": {"dtype": "DT_INT32", "tensorShape": {}}}}}, {"name": "Func/StatefulPartitionedCall/StatefulPartitionedCall/input/_870", "op": "Const", "input": ["^Func/StatefulPartitionedCall/StatefulPartitionedCall/input_control_node/_511"], "attr": {"value": {"tensor": {"dtype": "DT_FLOAT", "tensorShape": {"dim": [{"size": "1"}, {"size": "1"}, {"size": "768"}, {"size": "128"}]}}}, "dtype": {"type": "DT_FLOAT"}}}, {"name": "Func/StatefulPartitionedCall/StatefulPartitionedCall/input/_871", "op": "Const", "input": ["^Func/StatefulPartitionedCall/StatefulPartitionedCall/input_control_node/_511"], "attr": {"dtype": {"type": "DT_FLOAT"}, "value": {"tensor": {"dtype": "DT_FLOAT", "tensorShape": {"dim": [{"size": "128"}]}}}}}, {"name": "StatefulPartitionedCall/StatefulPartitionedCall/transformer/residual/residual10/conv2/StyleNorm/ExpandDims/dim", "op": "Const", "input": ["^Func/StatefulPartitionedCall/StatefulPartitionedCall/input_control_node/_511"], "attr": {"dtype": {"type": "DT_INT32"}, "value": {"tensor": {"dtype": "DT_INT32", "tensorShape": {}}}}}, {"name": "StatefulPartitionedCall/StatefulPartitionedCall/transformer/residual/residual10/conv2/StyleNorm/ExpandDims_1/dim", "op": "Const", "input": ["^Func/StatefulPartitionedCall/StatefulPartitionedCall/input_control_node/_511"], "attr": {"dtype": {"type": "DT_INT32"}, "value": {"tensor": {"dtype": "DT_INT32", "tensorShape": {}}}}}, {"name": "Func/StatefulPartitionedCall/StatefulPartitionedCall/input/_866", "op": "Const", "input": ["^Func/StatefulPartitionedCall/StatefulPartitionedCall/input_control_node/_511"], "attr": {"dtype": {"type": "DT_FLOAT"}, "value": {"tensor": {"dtype": "DT_FLOAT", "tensorShape": {"dim": [{"size": "1"}, {"size": "1"}, {"size": "768"}, {"size": "128"}]}}}}}, {"name": "Func/StatefulPartitionedCall/StatefulPartitionedCall/input/_867", "op": "Const", "input": ["^Func/StatefulPartitionedCall/StatefulPartitionedCall/input_control_node/_511"], "attr": {"dtype": {"type": "DT_FLOAT"}, "value": {"tensor": {"dtype": "DT_FLOAT", "tensorShape": {"dim": [{"size": "128"}]}}}}}, {"name": "StatefulPartitionedCall/StatefulPartitionedCall/transformer/residual/residual10/conv1/StyleNorm/ExpandDims/dim", "op": "Const", "input": ["^Func/StatefulPartitionedCall/StatefulPartitionedCall/input_control_node/_511"], "attr": {"value": {"tensor": {"dtype": "DT_INT32", "tensorShape": {}}}, "dtype": {"type": "DT_INT32"}}}, {"name": "StatefulPartitionedCall/StatefulPartitionedCall/transformer/residual/residual10/conv1/StyleNorm/ExpandDims_1/dim", "op": "Const", "input": ["^Func/StatefulPartitionedCall/StatefulPartitionedCall/input_control_node/_511"], "attr": {"dtype": {"type": "DT_INT32"}, "value": {"tensor": {"dtype": "DT_INT32", "tensorShape": {}}}}}, {"name": "Func/StatefulPartitionedCall/StatefulPartitionedCall/input/_862", "op": "Const", "input": ["^Func/StatefulPartitionedCall/StatefulPartitionedCall/input_control_node/_511"], "attr": {"value": {"tensor": {"dtype": "DT_FLOAT", "tensorShape": {"dim": [{"size": "1"}, {"size": "1"}, {"size": "768"}, {"size": "128"}]}}}, "dtype": {"type": "DT_FLOAT"}}}, {"name": "Func/StatefulPartitionedCall/StatefulPartitionedCall/input/_863", "op": "Const", "input": ["^Func/StatefulPartitionedCall/StatefulPartitionedCall/input_control_node/_511"], "attr": {"dtype": {"type": "DT_FLOAT"}, "value": {"tensor": {"dtype": "DT_FLOAT", "tensorShape": {"dim": [{"size": "128"}]}}}}}, {"name": "StatefulPartitionedCall/StatefulPartitionedCall/transformer/residual/residual9/conv2/StyleNorm/ExpandDims/dim", "op": "Const", "input": ["^Func/StatefulPartitionedCall/StatefulPartitionedCall/input_control_node/_511"], "attr": {"value": {"tensor": {"dtype": "DT_INT32", "tensorShape": {}}}, "dtype": {"type": "DT_INT32"}}}, {"name": "StatefulPartitionedCall/StatefulPartitionedCall/transformer/residual/residual9/conv2/StyleNorm/ExpandDims_1/dim", "op": "Const", "input": ["^Func/StatefulPartitionedCall/StatefulPartitionedCall/input_control_node/_511"], "attr": {"value": {"tensor": {"dtype": "DT_INT32", "tensorShape": {}}}, "dtype": {"type": "DT_INT32"}}}, {"name": "Func/StatefulPartitionedCall/StatefulPartitionedCall/input/_858", "op": "Const", "input": ["^Func/StatefulPartitionedCall/StatefulPartitionedCall/input_control_node/_511"], "attr": {"value": {"tensor": {"dtype": "DT_FLOAT", "tensorShape": {"dim": [{"size": "1"}, {"size": "1"}, {"size": "768"}, {"size": "128"}]}}}, "dtype": {"type": "DT_FLOAT"}}}, {"name": "Func/StatefulPartitionedCall/StatefulPartitionedCall/input/_859", "op": "Const", "input": ["^Func/StatefulPartitionedCall/StatefulPartitionedCall/input_control_node/_511"], "attr": {"dtype": {"type": "DT_FLOAT"}, "value": {"tensor": {"dtype": "DT_FLOAT", "tensorShape": {"dim": [{"size": "128"}]}}}}}, {"name": "StatefulPartitionedCall/StatefulPartitionedCall/transformer/residual/residual9/conv1/StyleNorm/ExpandDims/dim", "op": "Const", "input": ["^Func/StatefulPartitionedCall/StatefulPartitionedCall/input_control_node/_511"], "attr": {"dtype": {"type": "DT_INT32"}, "value": {"tensor": {"dtype": "DT_INT32", "tensorShape": {}}}}}, {"name": "StatefulPartitionedCall/StatefulPartitionedCall/transformer/residual/residual9/conv1/StyleNorm/ExpandDims_1/dim", "op": "Const", "input": ["^Func/StatefulPartitionedCall/StatefulPartitionedCall/input_control_node/_511"], "attr": {"dtype": {"type": "DT_INT32"}, "value": {"tensor": {"dtype": "DT_INT32", "tensorShape": {}}}}}, {"name": "Func/StatefulPartitionedCall/StatefulPartitionedCall/input/_854", "op": "Const", "input": ["^Func/StatefulPartitionedCall/StatefulPartitionedCall/input_control_node/_511"], "attr": {"dtype": {"type": "DT_FLOAT"}, "value": {"tensor": {"dtype": "DT_FLOAT", "tensorShape": {"dim": [{"size": "1"}, {"size": "1"}, {"size": "768"}, {"size": "128"}]}}}}}, {"name": "Func/StatefulPartitionedCall/StatefulPartitionedCall/input/_855", "op": "Const", "input": ["^Func/StatefulPartitionedCall/StatefulPartitionedCall/input_control_node/_511"], "attr": {"dtype": {"type": "DT_FLOAT"}, "value": {"tensor": {"dtype": "DT_FLOAT", "tensorShape": {"dim": [{"size": "128"}]}}}}}, {"name": "StatefulPartitionedCall/StatefulPartitionedCall/transformer/residual/residual8/conv2/StyleNorm/ExpandDims/dim", "op": "Const", "input": ["^Func/StatefulPartitionedCall/StatefulPartitionedCall/input_control_node/_511"], "attr": {"value": {"tensor": {"dtype": "DT_INT32", "tensorShape": {}}}, "dtype": {"type": "DT_INT32"}}}, {"name": "StatefulPartitionedCall/StatefulPartitionedCall/transformer/residual/residual8/conv2/StyleNorm/ExpandDims_1/dim", "op": "Const", "input": ["^Func/StatefulPartitionedCall/StatefulPartitionedCall/input_control_node/_511"], "attr": {"dtype": {"type": "DT_INT32"}, "value": {"tensor": {"dtype": "DT_INT32", "tensorShape": {}}}}}, {"name": "Func/StatefulPartitionedCall/StatefulPartitionedCall/input/_850", "op": "Const", "input": ["^Func/StatefulPartitionedCall/StatefulPartitionedCall/input_control_node/_511"], "attr": {"value": {"tensor": {"dtype": "DT_FLOAT", "tensorShape": {"dim": [{"size": "1"}, {"size": "1"}, {"size": "768"}, {"size": "128"}]}}}, "dtype": {"type": "DT_FLOAT"}}}, {"name": "Func/StatefulPartitionedCall/StatefulPartitionedCall/input/_851", "op": "Const", "input": ["^Func/StatefulPartitionedCall/StatefulPartitionedCall/input_control_node/_511"], "attr": {"dtype": {"type": "DT_FLOAT"}, "value": {"tensor": {"dtype": "DT_FLOAT", "tensorShape": {"dim": [{"size": "128"}]}}}}}, {"name": "StatefulPartitionedCall/StatefulPartitionedCall/transformer/residual/residual8/conv1/StyleNorm/ExpandDims/dim", "op": "Const", "input": ["^Func/StatefulPartitionedCall/StatefulPartitionedCall/input_control_node/_511"], "attr": {"value": {"tensor": {"dtype": "DT_INT32", "tensorShape": {}}}, "dtype": {"type": "DT_INT32"}}}, {"name": "StatefulPartitionedCall/StatefulPartitionedCall/transformer/residual/residual8/conv1/StyleNorm/ExpandDims_1/dim", "op": "Const", "input": ["^Func/StatefulPartitionedCall/StatefulPartitionedCall/input_control_node/_511"], "attr": {"dtype": {"type": "DT_INT32"}, "value": {"tensor": {"dtype": "DT_INT32", "tensorShape": {}}}}}, {"name": "Func/StatefulPartitionedCall/StatefulPartitionedCall/input/_846", "op": "Const", "input": ["^Func/StatefulPartitionedCall/StatefulPartitionedCall/input_control_node/_511"], "attr": {"value": {"tensor": {"dtype": "DT_FLOAT", "tensorShape": {"dim": [{"size": "1"}, {"size": "1"}, {"size": "768"}, {"size": "128"}]}}}, "dtype": {"type": "DT_FLOAT"}}}, {"name": "Func/StatefulPartitionedCall/StatefulPartitionedCall/input/_847", "op": "Const", "input": ["^Func/StatefulPartitionedCall/StatefulPartitionedCall/input_control_node/_511"], "attr": {"value": {"tensor": {"dtype": "DT_FLOAT", "tensorShape": {"dim": [{"size": "128"}]}}}, "dtype": {"type": "DT_FLOAT"}}}, {"name": "StatefulPartitionedCall/StatefulPartitionedCall/transformer/residual/residual7/conv2/StyleNorm/ExpandDims/dim", "op": "Const", "input": ["^Func/StatefulPartitionedCall/StatefulPartitionedCall/input_control_node/_511"], "attr": {"value": {"tensor": {"dtype": "DT_INT32", "tensorShape": {}}}, "dtype": {"type": "DT_INT32"}}}, {"name": "StatefulPartitionedCall/StatefulPartitionedCall/transformer/residual/residual7/conv2/StyleNorm/ExpandDims_1/dim", "op": "Const", "input": ["^Func/StatefulPartitionedCall/StatefulPartitionedCall/input_control_node/_511"], "attr": {"value": {"tensor": {"dtype": "DT_INT32", "tensorShape": {}}}, "dtype": {"type": "DT_INT32"}}}, {"name": "Func/StatefulPartitionedCall/StatefulPartitionedCall/input/_842", "op": "Const", "input": ["^Func/StatefulPartitionedCall/StatefulPartitionedCall/input_control_node/_511"], "attr": {"dtype": {"type": "DT_FLOAT"}, "value": {"tensor": {"dtype": "DT_FLOAT", "tensorShape": {"dim": [{"size": "1"}, {"size": "1"}, {"size": "768"}, {"size": "128"}]}}}}}, {"name": "Func/StatefulPartitionedCall/StatefulPartitionedCall/input/_843", "op": "Const", "input": ["^Func/StatefulPartitionedCall/StatefulPartitionedCall/input_control_node/_511"], "attr": {"value": {"tensor": {"dtype": "DT_FLOAT", "tensorShape": {"dim": [{"size": "128"}]}}}, "dtype": {"type": "DT_FLOAT"}}}, {"name": "StatefulPartitionedCall/StatefulPartitionedCall/transformer/residual/residual7/conv1/StyleNorm/ExpandDims/dim", "op": "Const", "input": ["^Func/StatefulPartitionedCall/StatefulPartitionedCall/input_control_node/_511"], "attr": {"value": {"tensor": {"dtype": "DT_INT32", "tensorShape": {}}}, "dtype": {"type": "DT_INT32"}}}, {"name": "StatefulPartitionedCall/StatefulPartitionedCall/transformer/residual/residual7/conv1/StyleNorm/ExpandDims_1/dim", "op": "Const", "input": ["^Func/StatefulPartitionedCall/StatefulPartitionedCall/input_control_node/_511"], "attr": {"dtype": {"type": "DT_INT32"}, "value": {"tensor": {"dtype": "DT_INT32", "tensorShape": {}}}}}, {"name": "Func/StatefulPartitionedCall/StatefulPartitionedCall/input/_838", "op": "Const", "input": ["^Func/StatefulPartitionedCall/StatefulPartitionedCall/input_control_node/_511"], "attr": {"value": {"tensor": {"dtype": "DT_FLOAT", "tensorShape": {"dim": [{"size": "1"}, {"size": "1"}, {"size": "768"}, {"size": "128"}]}}}, "dtype": {"type": "DT_FLOAT"}}}, {"name": "Func/StatefulPartitionedCall/StatefulPartitionedCall/input/_839", "op": "Const", "input": ["^Func/StatefulPartitionedCall/StatefulPartitionedCall/input_control_node/_511"], "attr": {"value": {"tensor": {"dtype": "DT_FLOAT", "tensorShape": {"dim": [{"size": "128"}]}}}, "dtype": {"type": "DT_FLOAT"}}}, {"name": "StatefulPartitionedCall/StatefulPartitionedCall/transformer/residual/residual6/conv2/StyleNorm/ExpandDims/dim", "op": "Const", "input": ["^Func/StatefulPartitionedCall/StatefulPartitionedCall/input_control_node/_511"], "attr": {"value": {"tensor": {"dtype": "DT_INT32", "tensorShape": {}}}, "dtype": {"type": "DT_INT32"}}}, {"name": "StatefulPartitionedCall/StatefulPartitionedCall/transformer/residual/residual6/conv2/StyleNorm/ExpandDims_1/dim", "op": "Const", "input": ["^Func/StatefulPartitionedCall/StatefulPartitionedCall/input_control_node/_511"], "attr": {"dtype": {"type": "DT_INT32"}, "value": {"tensor": {"dtype": "DT_INT32", "tensorShape": {}}}}}, {"name": "Func/StatefulPartitionedCall/StatefulPartitionedCall/input/_834", "op": "Const", "input": ["^Func/StatefulPartitionedCall/StatefulPartitionedCall/input_control_node/_511"], "attr": {"dtype": {"type": "DT_FLOAT"}, "value": {"tensor": {"dtype": "DT_FLOAT", "tensorShape": {"dim": [{"size": "1"}, {"size": "1"}, {"size": "768"}, {"size": "128"}]}}}}}, {"name": "Func/StatefulPartitionedCall/StatefulPartitionedCall/input/_835", "op": "Const", "input": ["^Func/StatefulPartitionedCall/StatefulPartitionedCall/input_control_node/_511"], "attr": {"dtype": {"type": "DT_FLOAT"}, "value": {"tensor": {"dtype": "DT_FLOAT", "tensorShape": {"dim": [{"size": "128"}]}}}}}, {"name": "StatefulPartitionedCall/StatefulPartitionedCall/transformer/residual/residual6/conv1/StyleNorm/ExpandDims/dim", "op": "Const", "input": ["^Func/StatefulPartitionedCall/StatefulPartitionedCall/input_control_node/_511"], "attr": {"value": {"tensor": {"dtype": "DT_INT32", "tensorShape": {}}}, "dtype": {"type": "DT_INT32"}}}, {"name": "StatefulPartitionedCall/StatefulPartitionedCall/transformer/residual/residual6/conv1/StyleNorm/ExpandDims_1/dim", "op": "Const", "input": ["^Func/StatefulPartitionedCall/StatefulPartitionedCall/input_control_node/_511"], "attr": {"dtype": {"type": "DT_INT32"}, "value": {"tensor": {"dtype": "DT_INT32", "tensorShape": {}}}}}, {"name": "Func/StatefulPartitionedCall/StatefulPartitionedCall/input/_830", "op": "Const", "input": ["^Func/StatefulPartitionedCall/StatefulPartitionedCall/input_control_node/_511"], "attr": {"value": {"tensor": {"dtype": "DT_FLOAT", "tensorShape": {"dim": [{"size": "1"}, {"size": "1"}, {"size": "768"}, {"size": "128"}]}}}, "dtype": {"type": "DT_FLOAT"}}}, {"name": "Func/StatefulPartitionedCall/StatefulPartitionedCall/input/_831", "op": "Const", "input": ["^Func/StatefulPartitionedCall/StatefulPartitionedCall/input_control_node/_511"], "attr": {"dtype": {"type": "DT_FLOAT"}, "value": {"tensor": {"dtype": "DT_FLOAT", "tensorShape": {"dim": [{"size": "128"}]}}}}}, {"name": "StatefulPartitionedCall/StatefulPartitionedCall/transformer/residual/residual5/conv2/StyleNorm/ExpandDims/dim", "op": "Const", "input": ["^Func/StatefulPartitionedCall/StatefulPartitionedCall/input_control_node/_511"], "attr": {"dtype": {"type": "DT_INT32"}, "value": {"tensor": {"dtype": "DT_INT32", "tensorShape": {}}}}}, {"name": "StatefulPartitionedCall/StatefulPartitionedCall/transformer/residual/residual5/conv2/StyleNorm/ExpandDims_1/dim", "op": "Const", "input": ["^Func/StatefulPartitionedCall/StatefulPartitionedCall/input_control_node/_511"], "attr": {"value": {"tensor": {"dtype": "DT_INT32", "tensorShape": {}}}, "dtype": {"type": "DT_INT32"}}}, {"name": "Func/StatefulPartitionedCall/StatefulPartitionedCall/input/_826", "op": "Const", "input": ["^Func/StatefulPartitionedCall/StatefulPartitionedCall/input_control_node/_511"], "attr": {"value": {"tensor": {"dtype": "DT_FLOAT", "tensorShape": {"dim": [{"size": "1"}, {"size": "1"}, {"size": "768"}, {"size": "128"}]}}}, "dtype": {"type": "DT_FLOAT"}}}, {"name": "Func/StatefulPartitionedCall/StatefulPartitionedCall/input/_827", "op": "Const", "input": ["^Func/StatefulPartitionedCall/StatefulPartitionedCall/input_control_node/_511"], "attr": {"dtype": {"type": "DT_FLOAT"}, "value": {"tensor": {"dtype": "DT_FLOAT", "tensorShape": {"dim": [{"size": "128"}]}}}}}, {"name": "StatefulPartitionedCall/StatefulPartitionedCall/transformer/residual/residual5/conv1/StyleNorm/ExpandDims/dim", "op": "Const", "input": ["^Func/StatefulPartitionedCall/StatefulPartitionedCall/input_control_node/_511"], "attr": {"value": {"tensor": {"dtype": "DT_INT32", "tensorShape": {}}}, "dtype": {"type": "DT_INT32"}}}, {"name": "StatefulPartitionedCall/StatefulPartitionedCall/transformer/residual/residual5/conv1/StyleNorm/ExpandDims_1/dim", "op": "Const", "input": ["^Func/StatefulPartitionedCall/StatefulPartitionedCall/input_control_node/_511"], "attr": {"dtype": {"type": "DT_INT32"}, "value": {"tensor": {"dtype": "DT_INT32", "tensorShape": {}}}}}, {"name": "Func/StatefulPartitionedCall/StatefulPartitionedCall/input/_822", "op": "Const", "input": ["^Func/StatefulPartitionedCall/StatefulPartitionedCall/input_control_node/_511"], "attr": {"value": {"tensor": {"dtype": "DT_FLOAT", "tensorShape": {"dim": [{"size": "1"}, {"size": "1"}, {"size": "768"}, {"size": "128"}]}}}, "dtype": {"type": "DT_FLOAT"}}}, {"name": "Func/StatefulPartitionedCall/StatefulPartitionedCall/input/_823", "op": "Const", "input": ["^Func/StatefulPartitionedCall/StatefulPartitionedCall/input_control_node/_511"], "attr": {"value": {"tensor": {"dtype": "DT_FLOAT", "tensorShape": {"dim": [{"size": "128"}]}}}, "dtype": {"type": "DT_FLOAT"}}}, {"name": "StatefulPartitionedCall/StatefulPartitionedCall/transformer/residual/residual4/conv2/StyleNorm/ExpandDims/dim", "op": "Const", "input": ["^Func/StatefulPartitionedCall/StatefulPartitionedCall/input_control_node/_511"], "attr": {"dtype": {"type": "DT_INT32"}, "value": {"tensor": {"dtype": "DT_INT32", "tensorShape": {}}}}}, {"name": "StatefulPartitionedCall/StatefulPartitionedCall/transformer/residual/residual4/conv2/StyleNorm/ExpandDims_1/dim", "op": "Const", "input": ["^Func/StatefulPartitionedCall/StatefulPartitionedCall/input_control_node/_511"], "attr": {"value": {"tensor": {"dtype": "DT_INT32", "tensorShape": {}}}, "dtype": {"type": "DT_INT32"}}}, {"name": "Func/StatefulPartitionedCall/StatefulPartitionedCall/input/_818", "op": "Const", "input": ["^Func/StatefulPartitionedCall/StatefulPartitionedCall/input_control_node/_511"], "attr": {"value": {"tensor": {"dtype": "DT_FLOAT", "tensorShape": {"dim": [{"size": "1"}, {"size": "1"}, {"size": "768"}, {"size": "128"}]}}}, "dtype": {"type": "DT_FLOAT"}}}, {"name": "Func/StatefulPartitionedCall/StatefulPartitionedCall/input/_819", "op": "Const", "input": ["^Func/StatefulPartitionedCall/StatefulPartitionedCall/input_control_node/_511"], "attr": {"value": {"tensor": {"dtype": "DT_FLOAT", "tensorShape": {"dim": [{"size": "128"}]}}}, "dtype": {"type": "DT_FLOAT"}}}, {"name": "StatefulPartitionedCall/StatefulPartitionedCall/transformer/residual/residual4/conv1/StyleNorm/ExpandDims/dim", "op": "Const", "input": ["^Func/StatefulPartitionedCall/StatefulPartitionedCall/input_control_node/_511"], "attr": {"value": {"tensor": {"dtype": "DT_INT32", "tensorShape": {}}}, "dtype": {"type": "DT_INT32"}}}, {"name": "StatefulPartitionedCall/StatefulPartitionedCall/transformer/residual/residual4/conv1/StyleNorm/ExpandDims_1/dim", "op": "Const", "input": ["^Func/StatefulPartitionedCall/StatefulPartitionedCall/input_control_node/_511"], "attr": {"value": {"tensor": {"dtype": "DT_INT32", "tensorShape": {}}}, "dtype": {"type": "DT_INT32"}}}, {"name": "Func/StatefulPartitionedCall/StatefulPartitionedCall/input/_814", "op": "Const", "input": ["^Func/StatefulPartitionedCall/StatefulPartitionedCall/input_control_node/_511"], "attr": {"value": {"tensor": {"dtype": "DT_FLOAT", "tensorShape": {"dim": [{"size": "1"}, {"size": "1"}, {"size": "768"}, {"size": "128"}]}}}, "dtype": {"type": "DT_FLOAT"}}}, {"name": "Func/StatefulPartitionedCall/StatefulPartitionedCall/input/_815", "op": "Const", "input": ["^Func/StatefulPartitionedCall/StatefulPartitionedCall/input_control_node/_511"], "attr": {"dtype": {"type": "DT_FLOAT"}, "value": {"tensor": {"dtype": "DT_FLOAT", "tensorShape": {"dim": [{"size": "128"}]}}}}}, {"name": "StatefulPartitionedCall/StatefulPartitionedCall/transformer/residual/residual3/conv2/StyleNorm/ExpandDims/dim", "op": "Const", "input": ["^Func/StatefulPartitionedCall/StatefulPartitionedCall/input_control_node/_511"], "attr": {"dtype": {"type": "DT_INT32"}, "value": {"tensor": {"dtype": "DT_INT32", "tensorShape": {}}}}}, {"name": "StatefulPartitionedCall/StatefulPartitionedCall/transformer/residual/residual3/conv2/StyleNorm/ExpandDims_1/dim", "op": "Const", "input": ["^Func/StatefulPartitionedCall/StatefulPartitionedCall/input_control_node/_511"], "attr": {"value": {"tensor": {"dtype": "DT_INT32", "tensorShape": {}}}, "dtype": {"type": "DT_INT32"}}}, {"name": "Func/StatefulPartitionedCall/StatefulPartitionedCall/input/_810", "op": "Const", "input": ["^Func/StatefulPartitionedCall/StatefulPartitionedCall/input_control_node/_511"], "attr": {"dtype": {"type": "DT_FLOAT"}, "value": {"tensor": {"dtype": "DT_FLOAT", "tensorShape": {"dim": [{"size": "1"}, {"size": "1"}, {"size": "768"}, {"size": "128"}]}}}}}, {"name": "Func/StatefulPartitionedCall/StatefulPartitionedCall/input/_811", "op": "Const", "input": ["^Func/StatefulPartitionedCall/StatefulPartitionedCall/input_control_node/_511"], "attr": {"dtype": {"type": "DT_FLOAT"}, "value": {"tensor": {"dtype": "DT_FLOAT", "tensorShape": {"dim": [{"size": "128"}]}}}}}, {"name": "StatefulPartitionedCall/StatefulPartitionedCall/transformer/residual/residual3/conv1/StyleNorm/ExpandDims/dim", "op": "Const", "input": ["^Func/StatefulPartitionedCall/StatefulPartitionedCall/input_control_node/_511"], "attr": {"value": {"tensor": {"dtype": "DT_INT32", "tensorShape": {}}}, "dtype": {"type": "DT_INT32"}}}, {"name": "StatefulPartitionedCall/StatefulPartitionedCall/transformer/residual/residual3/conv1/StyleNorm/ExpandDims_1/dim", "op": "Const", "input": ["^Func/StatefulPartitionedCall/StatefulPartitionedCall/input_control_node/_511"], "attr": {"value": {"tensor": {"dtype": "DT_INT32", "tensorShape": {}}}, "dtype": {"type": "DT_INT32"}}}, {"name": "Func/StatefulPartitionedCall/StatefulPartitionedCall/input/_806", "op": "Const", "input": ["^Func/StatefulPartitionedCall/StatefulPartitionedCall/input_control_node/_511"], "attr": {"dtype": {"type": "DT_FLOAT"}, "value": {"tensor": {"dtype": "DT_FLOAT", "tensorShape": {"dim": [{"size": "1"}, {"size": "1"}, {"size": "768"}, {"size": "128"}]}}}}}, {"name": "Func/StatefulPartitionedCall/StatefulPartitionedCall/input/_807", "op": "Const", "input": ["^Func/StatefulPartitionedCall/StatefulPartitionedCall/input_control_node/_511"], "attr": {"dtype": {"type": "DT_FLOAT"}, "value": {"tensor": {"dtype": "DT_FLOAT", "tensorShape": {"dim": [{"size": "128"}]}}}}}, {"name": "StatefulPartitionedCall/StatefulPartitionedCall/transformer/residual/residual2/conv2/StyleNorm/ExpandDims/dim", "op": "Const", "input": ["^Func/StatefulPartitionedCall/StatefulPartitionedCall/input_control_node/_511"], "attr": {"dtype": {"type": "DT_INT32"}, "value": {"tensor": {"dtype": "DT_INT32", "tensorShape": {}}}}}, {"name": "StatefulPartitionedCall/StatefulPartitionedCall/transformer/residual/residual2/conv2/StyleNorm/ExpandDims_1/dim", "op": "Const", "input": ["^Func/StatefulPartitionedCall/StatefulPartitionedCall/input_control_node/_511"], "attr": {"dtype": {"type": "DT_INT32"}, "value": {"tensor": {"dtype": "DT_INT32", "tensorShape": {}}}}}, {"name": "Func/StatefulPartitionedCall/StatefulPartitionedCall/input/_802", "op": "Const", "input": ["^Func/StatefulPartitionedCall/StatefulPartitionedCall/input_control_node/_511"], "attr": {"dtype": {"type": "DT_FLOAT"}, "value": {"tensor": {"dtype": "DT_FLOAT", "tensorShape": {"dim": [{"size": "1"}, {"size": "1"}, {"size": "768"}, {"size": "128"}]}}}}}, {"name": "Func/StatefulPartitionedCall/StatefulPartitionedCall/input/_803", "op": "Const", "input": ["^Func/StatefulPartitionedCall/StatefulPartitionedCall/input_control_node/_511"], "attr": {"value": {"tensor": {"dtype": "DT_FLOAT", "tensorShape": {"dim": [{"size": "128"}]}}}, "dtype": {"type": "DT_FLOAT"}}}, {"name": "StatefulPartitionedCall/StatefulPartitionedCall/transformer/residual/residual2/conv1/StyleNorm/ExpandDims/dim", "op": "Const", "input": ["^Func/StatefulPartitionedCall/StatefulPartitionedCall/input_control_node/_511"], "attr": {"dtype": {"type": "DT_INT32"}, "value": {"tensor": {"dtype": "DT_INT32", "tensorShape": {}}}}}, {"name": "StatefulPartitionedCall/StatefulPartitionedCall/transformer/residual/residual2/conv1/StyleNorm/ExpandDims_1/dim", "op": "Const", "input": ["^Func/StatefulPartitionedCall/StatefulPartitionedCall/input_control_node/_511"], "attr": {"value": {"tensor": {"dtype": "DT_INT32", "tensorShape": {}}}, "dtype": {"type": "DT_INT32"}}}, {"name": "Func/StatefulPartitionedCall/StatefulPartitionedCall/input/_798", "op": "Const", "input": ["^Func/StatefulPartitionedCall/StatefulPartitionedCall/input_control_node/_511"], "attr": {"value": {"tensor": {"dtype": "DT_FLOAT", "tensorShape": {"dim": [{"size": "1"}, {"size": "1"}, {"size": "768"}, {"size": "128"}]}}}, "dtype": {"type": "DT_FLOAT"}}}, {"name": "Func/StatefulPartitionedCall/StatefulPartitionedCall/input/_799", "op": "Const", "input": ["^Func/StatefulPartitionedCall/StatefulPartitionedCall/input_control_node/_511"], "attr": {"value": {"tensor": {"dtype": "DT_FLOAT", "tensorShape": {"dim": [{"size": "128"}]}}}, "dtype": {"type": "DT_FLOAT"}}}, {"name": "StatefulPartitionedCall/StatefulPartitionedCall/transformer/residual/residual1/conv2/StyleNorm/ExpandDims/dim", "op": "Const", "input": ["^Func/StatefulPartitionedCall/StatefulPartitionedCall/input_control_node/_511"], "attr": {"dtype": {"type": "DT_INT32"}, "value": {"tensor": {"dtype": "DT_INT32", "tensorShape": {}}}}}, {"name": "StatefulPartitionedCall/StatefulPartitionedCall/transformer/residual/residual1/conv2/StyleNorm/ExpandDims_1/dim", "op": "Const", "input": ["^Func/StatefulPartitionedCall/StatefulPartitionedCall/input_control_node/_511"], "attr": {"dtype": {"type": "DT_INT32"}, "value": {"tensor": {"dtype": "DT_INT32", "tensorShape": {}}}}}, {"name": "Func/StatefulPartitionedCall/StatefulPartitionedCall/input/_794", "op": "Const", "input": ["^Func/StatefulPartitionedCall/StatefulPartitionedCall/input_control_node/_511"], "attr": {"dtype": {"type": "DT_FLOAT"}, "value": {"tensor": {"dtype": "DT_FLOAT", "tensorShape": {"dim": [{"size": "1"}, {"size": "1"}, {"size": "768"}, {"size": "128"}]}}}}}, {"name": "Func/StatefulPartitionedCall/StatefulPartitionedCall/input/_795", "op": "Const", "input": ["^Func/StatefulPartitionedCall/StatefulPartitionedCall/input_control_node/_511"], "attr": {"value": {"tensor": {"dtype": "DT_FLOAT", "tensorShape": {"dim": [{"size": "128"}]}}}, "dtype": {"type": "DT_FLOAT"}}}, {"name": "StatefulPartitionedCall/StatefulPartitionedCall/transformer/residual/residual1/conv1/StyleNorm/ExpandDims/dim", "op": "Const", "input": ["^Func/StatefulPartitionedCall/StatefulPartitionedCall/input_control_node/_511"], "attr": {"dtype": {"type": "DT_INT32"}, "value": {"tensor": {"dtype": "DT_INT32", "tensorShape": {}}}}}, {"name": "StatefulPartitionedCall/StatefulPartitionedCall/transformer/residual/residual1/conv1/StyleNorm/ExpandDims_1/dim", "op": "Const", "input": ["^Func/StatefulPartitionedCall/StatefulPartitionedCall/input_control_node/_511"], "attr": {"dtype": {"type": "DT_INT32"}, "value": {"tensor": {"dtype": "DT_INT32", "tensorShape": {}}}}}, {"name": "StatefulPartitionedCall/StatefulPartitionedCall/transformer/contract/MirrorPad/paddings", "op": "Const", "input": ["^Func/StatefulPartitionedCall/StatefulPartitionedCall/input_control_node/_511"], "attr": {"value": {"tensor": {"dtype": "DT_INT32", "tensorShape": {"dim": [{"size": "4"}, {"size": "2"}]}}}, "dtype": {"type": "DT_INT32"}}}, {"name": "StatefulPartitionedCall/StatefulPartitionedCall/transformer/contract/MirrorPad_1/paddings", "op": "Const", "input": ["^Func/StatefulPartitionedCall/StatefulPartitionedCall/input_control_node/_511"], "attr": {"dtype": {"type": "DT_INT32"}, "value": {"tensor": {"dtype": "DT_INT32", "tensorShape": {"dim": [{"size": "4"}, {"size": "2"}]}}}}}, {"name": "StatefulPartitionedCall/StatefulPartitionedCall/transformer/contract/MirrorPad_2/paddings", "op": "Const", "input": ["^Func/StatefulPartitionedCall/StatefulPartitionedCall/input_control_node/_511"], "attr": {"dtype": {"type": "DT_INT32"}, "value": {"tensor": {"dtype": "DT_INT32", "tensorShape": {"dim": [{"size": "4"}, {"size": "2"}]}}}}}, {"name": "StatefulPartitionedCall/StatefulPartitionedCall/transformer/residual/residual1/MirrorPad/paddings", "op": "Const", "input": ["^Func/StatefulPartitionedCall/StatefulPartitionedCall/input_control_node/_511"], "attr": {"dtype": {"type": "DT_INT32"}, "value": {"tensor": {"dtype": "DT_INT32", "tensorShape": {"dim": [{"size": "4"}, {"size": "2"}]}}}}}, {"name": "Func/StatefulPartitionedCall/StatefulPartitionedCall/input/_978", "op": "Const", "input": ["^Func/StatefulPartitionedCall/StatefulPartitionedCall/input_control_node/_511"], "attr": {"dtype": {"type": "DT_FLOAT"}, "value": {"tensor": {"dtype": "DT_FLOAT", "tensorShape": {"dim": [{"size": "3"}, {"size": "3"}, {"size": "128"}, {"size": "128"}]}}}}}, {"name": "StatefulPartitionedCall/StatefulPartitionedCall/transformer/residual/residual1/conv1/StyleNorm/moments/mean/reduction_indices", "op": "Const", "input": ["^Func/StatefulPartitionedCall/StatefulPartitionedCall/input_control_node/_511"], "attr": {"value": {"tensor": {"dtype": "DT_INT32", "tensorShape": {"dim": [{"size": "2"}]}}}, "dtype": {"type": "DT_INT32"}}}, {"name": "StatefulPartitionedCall/StatefulPartitionedCall/transformer/residual/residual1/conv1/StyleNorm/moments/variance/reduction_indices", "op": "Const", "input": ["^Func/StatefulPartitionedCall/StatefulPartitionedCall/input_control_node/_511"], "attr": {"value": {"tensor": {"dtype": "DT_INT32", "tensorShape": {"dim": [{"size": "2"}]}}}, "dtype": {"type": "DT_INT32"}}}, {"name": "StatefulPartitionedCall/StatefulPartitionedCall/transformer/residual/residual1/conv1/StyleNorm/batchnorm/add/y", "op": "Const", "input": ["^Func/StatefulPartitionedCall/StatefulPartitionedCall/input_control_node/_511"], "attr": {"dtype": {"type": "DT_FLOAT"}, "value": {"tensor": {"dtype": "DT_FLOAT", "tensorShape": {}}}}}, {"name": "Func/StatefulPartitionedCall/StatefulPartitionedCall/input/_796", "op": "Const", "input": ["^Func/StatefulPartitionedCall/StatefulPartitionedCall/input_control_node/_511"], "attr": {"dtype": {"type": "DT_FLOAT"}, "value": {"tensor": {"dtype": "DT_FLOAT", "tensorShape": {"dim": [{"size": "1"}, {"size": "1"}, {"size": "768"}, {"size": "128"}]}}}}}, {"name": "Func/StatefulPartitionedCall/StatefulPartitionedCall/input/_797", "op": "Const", "input": ["^Func/StatefulPartitionedCall/StatefulPartitionedCall/input_control_node/_511"], "attr": {"dtype": {"type": "DT_FLOAT"}, "value": {"tensor": {"dtype": "DT_FLOAT", "tensorShape": {"dim": [{"size": "128"}]}}}}}, {"name": "StatefulPartitionedCall/StatefulPartitionedCall/transformer/residual/residual1/conv1/StyleNorm/ExpandDims_2/dim", "op": "Const", "input": ["^Func/StatefulPartitionedCall/StatefulPartitionedCall/input_control_node/_511"], "attr": {"value": {"tensor": {"dtype": "DT_INT32", "tensorShape": {}}}, "dtype": {"type": "DT_INT32"}}}, {"name": "StatefulPartitionedCall/StatefulPartitionedCall/transformer/residual/residual1/conv1/StyleNorm/ExpandDims_3/dim", "op": "Const", "input": ["^Func/StatefulPartitionedCall/StatefulPartitionedCall/input_control_node/_511"], "attr": {"value": {"tensor": {"dtype": "DT_INT32", "tensorShape": {}}}, "dtype": {"type": "DT_INT32"}}}, {"name": "StatefulPartitionedCall/StatefulPartitionedCall/transformer/residual/residual1/MirrorPad_1/paddings", "op": "Const", "input": ["^Func/StatefulPartitionedCall/StatefulPartitionedCall/input_control_node/_511"], "attr": {"value": {"tensor": {"dtype": "DT_INT32", "tensorShape": {"dim": [{"size": "4"}, {"size": "2"}]}}}, "dtype": {"type": "DT_INT32"}}}, {"name": "Func/StatefulPartitionedCall/StatefulPartitionedCall/input/_979", "op": "Const", "input": ["^Func/StatefulPartitionedCall/StatefulPartitionedCall/input_control_node/_511"], "attr": {"value": {"tensor": {"dtype": "DT_FLOAT", "tensorShape": {"dim": [{"size": "3"}, {"size": "3"}, {"size": "128"}, {"size": "128"}]}}}, "dtype": {"type": "DT_FLOAT"}}}, {"name": "StatefulPartitionedCall/StatefulPartitionedCall/transformer/residual/residual1/conv2/StyleNorm/moments/mean/reduction_indices", "op": "Const", "input": ["^Func/StatefulPartitionedCall/StatefulPartitionedCall/input_control_node/_511"], "attr": {"value": {"tensor": {"dtype": "DT_INT32", "tensorShape": {"dim": [{"size": "2"}]}}}, "dtype": {"type": "DT_INT32"}}}, {"name": "StatefulPartitionedCall/StatefulPartitionedCall/transformer/residual/residual1/conv2/StyleNorm/moments/variance/reduction_indices", "op": "Const", "input": ["^Func/StatefulPartitionedCall/StatefulPartitionedCall/input_control_node/_511"], "attr": {"dtype": {"type": "DT_INT32"}, "value": {"tensor": {"dtype": "DT_INT32", "tensorShape": {"dim": [{"size": "2"}]}}}}}, {"name": "StatefulPartitionedCall/StatefulPartitionedCall/transformer/residual/residual1/conv2/StyleNorm/batchnorm/add/y", "op": "Const", "input": ["^Func/StatefulPartitionedCall/StatefulPartitionedCall/input_control_node/_511"], "attr": {"dtype": {"type": "DT_FLOAT"}, "value": {"tensor": {"dtype": "DT_FLOAT", "tensorShape": {}}}}}, {"name": "Func/StatefulPartitionedCall/StatefulPartitionedCall/input/_800", "op": "Const", "input": ["^Func/StatefulPartitionedCall/StatefulPartitionedCall/input_control_node/_511"], "attr": {"dtype": {"type": "DT_FLOAT"}, "value": {"tensor": {"dtype": "DT_FLOAT", "tensorShape": {"dim": [{"size": "1"}, {"size": "1"}, {"size": "768"}, {"size": "128"}]}}}}}, {"name": "Func/StatefulPartitionedCall/StatefulPartitionedCall/input/_801", "op": "Const", "input": ["^Func/StatefulPartitionedCall/StatefulPartitionedCall/input_control_node/_511"], "attr": {"dtype": {"type": "DT_FLOAT"}, "value": {"tensor": {"dtype": "DT_FLOAT", "tensorShape": {"dim": [{"size": "128"}]}}}}}, {"name": "StatefulPartitionedCall/StatefulPartitionedCall/transformer/residual/residual1/conv2/StyleNorm/ExpandDims_2/dim", "op": "Const", "input": ["^Func/StatefulPartitionedCall/StatefulPartitionedCall/input_control_node/_511"], "attr": {"value": {"tensor": {"dtype": "DT_INT32", "tensorShape": {}}}, "dtype": {"type": "DT_INT32"}}}, {"name": "StatefulPartitionedCall/StatefulPartitionedCall/transformer/residual/residual1/conv2/StyleNorm/ExpandDims_3/dim", "op": "Const", "input": ["^Func/StatefulPartitionedCall/StatefulPartitionedCall/input_control_node/_511"], "attr": {"value": {"tensor": {"dtype": "DT_INT32", "tensorShape": {}}}, "dtype": {"type": "DT_INT32"}}}, {"name": "StatefulPartitionedCall/StatefulPartitionedCall/transformer/residual/residual2/MirrorPad/paddings", "op": "Const", "input": ["^Func/StatefulPartitionedCall/StatefulPartitionedCall/input_control_node/_511"], "attr": {"dtype": {"type": "DT_INT32"}, "value": {"tensor": {"dtype": "DT_INT32", "tensorShape": {"dim": [{"size": "4"}, {"size": "2"}]}}}}}, {"name": "Func/StatefulPartitionedCall/StatefulPartitionedCall/input/_980", "op": "Const", "input": ["^Func/StatefulPartitionedCall/StatefulPartitionedCall/input_control_node/_511"], "attr": {"value": {"tensor": {"dtype": "DT_FLOAT", "tensorShape": {"dim": [{"size": "3"}, {"size": "3"}, {"size": "128"}, {"size": "128"}]}}}, "dtype": {"type": "DT_FLOAT"}}}, {"name": "StatefulPartitionedCall/StatefulPartitionedCall/transformer/residual/residual2/conv1/StyleNorm/moments/mean/reduction_indices", "op": "Const", "input": ["^Func/StatefulPartitionedCall/StatefulPartitionedCall/input_control_node/_511"], "attr": {"value": {"tensor": {"dtype": "DT_INT32", "tensorShape": {"dim": [{"size": "2"}]}}}, "dtype": {"type": "DT_INT32"}}}, {"name": "StatefulPartitionedCall/StatefulPartitionedCall/transformer/residual/residual2/conv1/StyleNorm/moments/variance/reduction_indices", "op": "Const", "input": ["^Func/StatefulPartitionedCall/StatefulPartitionedCall/input_control_node/_511"], "attr": {"dtype": {"type": "DT_INT32"}, "value": {"tensor": {"dtype": "DT_INT32", "tensorShape": {"dim": [{"size": "2"}]}}}}}, {"name": "StatefulPartitionedCall/StatefulPartitionedCall/transformer/residual/residual2/conv1/StyleNorm/batchnorm/add/y", "op": "Const", "input": ["^Func/StatefulPartitionedCall/StatefulPartitionedCall/input_control_node/_511"], "attr": {"value": {"tensor": {"dtype": "DT_FLOAT", "tensorShape": {}}}, "dtype": {"type": "DT_FLOAT"}}}, {"name": "Func/StatefulPartitionedCall/StatefulPartitionedCall/input/_804", "op": "Const", "input": ["^Func/StatefulPartitionedCall/StatefulPartitionedCall/input_control_node/_511"], "attr": {"value": {"tensor": {"dtype": "DT_FLOAT", "tensorShape": {"dim": [{"size": "1"}, {"size": "1"}, {"size": "768"}, {"size": "128"}]}}}, "dtype": {"type": "DT_FLOAT"}}}, {"name": "Func/StatefulPartitionedCall/StatefulPartitionedCall/input/_805", "op": "Const", "input": ["^Func/StatefulPartitionedCall/StatefulPartitionedCall/input_control_node/_511"], "attr": {"value": {"tensor": {"dtype": "DT_FLOAT", "tensorShape": {"dim": [{"size": "128"}]}}}, "dtype": {"type": "DT_FLOAT"}}}, {"name": "StatefulPartitionedCall/StatefulPartitionedCall/transformer/residual/residual2/conv1/StyleNorm/ExpandDims_2/dim", "op": "Const", "input": ["^Func/StatefulPartitionedCall/StatefulPartitionedCall/input_control_node/_511"], "attr": {"dtype": {"type": "DT_INT32"}, "value": {"tensor": {"dtype": "DT_INT32", "tensorShape": {}}}}}, {"name": "StatefulPartitionedCall/StatefulPartitionedCall/transformer/residual/residual2/conv1/StyleNorm/ExpandDims_3/dim", "op": "Const", "input": ["^Func/StatefulPartitionedCall/StatefulPartitionedCall/input_control_node/_511"], "attr": {"value": {"tensor": {"dtype": "DT_INT32", "tensorShape": {}}}, "dtype": {"type": "DT_INT32"}}}, {"name": "StatefulPartitionedCall/StatefulPartitionedCall/transformer/residual/residual2/MirrorPad_1/paddings", "op": "Const", "input": ["^Func/StatefulPartitionedCall/StatefulPartitionedCall/input_control_node/_511"], "attr": {"value": {"tensor": {"dtype": "DT_INT32", "tensorShape": {"dim": [{"size": "4"}, {"size": "2"}]}}}, "dtype": {"type": "DT_INT32"}}}, {"name": "Func/StatefulPartitionedCall/StatefulPartitionedCall/input/_981", "op": "Const", "input": ["^Func/StatefulPartitionedCall/StatefulPartitionedCall/input_control_node/_511"], "attr": {"dtype": {"type": "DT_FLOAT"}, "value": {"tensor": {"dtype": "DT_FLOAT", "tensorShape": {"dim": [{"size": "3"}, {"size": "3"}, {"size": "128"}, {"size": "128"}]}}}}}, {"name": "StatefulPartitionedCall/StatefulPartitionedCall/transformer/residual/residual2/conv2/StyleNorm/moments/mean/reduction_indices", "op": "Const", "input": ["^Func/StatefulPartitionedCall/StatefulPartitionedCall/input_control_node/_511"], "attr": {"value": {"tensor": {"dtype": "DT_INT32", "tensorShape": {"dim": [{"size": "2"}]}}}, "dtype": {"type": "DT_INT32"}}}, {"name": "StatefulPartitionedCall/StatefulPartitionedCall/transformer/residual/residual2/conv2/StyleNorm/moments/variance/reduction_indices", "op": "Const", "input": ["^Func/StatefulPartitionedCall/StatefulPartitionedCall/input_control_node/_511"], "attr": {"value": {"tensor": {"dtype": "DT_INT32", "tensorShape": {"dim": [{"size": "2"}]}}}, "dtype": {"type": "DT_INT32"}}}, {"name": "StatefulPartitionedCall/StatefulPartitionedCall/transformer/residual/residual2/conv2/StyleNorm/batchnorm/add/y", "op": "Const", "input": ["^Func/StatefulPartitionedCall/StatefulPartitionedCall/input_control_node/_511"], "attr": {"dtype": {"type": "DT_FLOAT"}, "value": {"tensor": {"dtype": "DT_FLOAT", "tensorShape": {}}}}}, {"name": "Func/StatefulPartitionedCall/StatefulPartitionedCall/input/_808", "op": "Const", "input": ["^Func/StatefulPartitionedCall/StatefulPartitionedCall/input_control_node/_511"], "attr": {"dtype": {"type": "DT_FLOAT"}, "value": {"tensor": {"dtype": "DT_FLOAT", "tensorShape": {"dim": [{"size": "1"}, {"size": "1"}, {"size": "768"}, {"size": "128"}]}}}}}, {"name": "Func/StatefulPartitionedCall/StatefulPartitionedCall/input/_809", "op": "Const", "input": ["^Func/StatefulPartitionedCall/StatefulPartitionedCall/input_control_node/_511"], "attr": {"value": {"tensor": {"dtype": "DT_FLOAT", "tensorShape": {"dim": [{"size": "128"}]}}}, "dtype": {"type": "DT_FLOAT"}}}, {"name": "StatefulPartitionedCall/StatefulPartitionedCall/transformer/residual/residual2/conv2/StyleNorm/ExpandDims_2/dim", "op": "Const", "input": ["^Func/StatefulPartitionedCall/StatefulPartitionedCall/input_control_node/_511"], "attr": {"value": {"tensor": {"dtype": "DT_INT32", "tensorShape": {}}}, "dtype": {"type": "DT_INT32"}}}, {"name": "StatefulPartitionedCall/StatefulPartitionedCall/transformer/residual/residual2/conv2/StyleNorm/ExpandDims_3/dim", "op": "Const", "input": ["^Func/StatefulPartitionedCall/StatefulPartitionedCall/input_control_node/_511"], "attr": {"value": {"tensor": {"dtype": "DT_INT32", "tensorShape": {}}}, "dtype": {"type": "DT_INT32"}}}, {"name": "StatefulPartitionedCall/StatefulPartitionedCall/transformer/residual/residual3/MirrorPad/paddings", "op": "Const", "input": ["^Func/StatefulPartitionedCall/StatefulPartitionedCall/input_control_node/_511"], "attr": {"dtype": {"type": "DT_INT32"}, "value": {"tensor": {"dtype": "DT_INT32", "tensorShape": {"dim": [{"size": "4"}, {"size": "2"}]}}}}}, {"name": "Func/StatefulPartitionedCall/StatefulPartitionedCall/input/_982", "op": "Const", "input": ["^Func/StatefulPartitionedCall/StatefulPartitionedCall/input_control_node/_511"], "attr": {"value": {"tensor": {"dtype": "DT_FLOAT", "tensorShape": {"dim": [{"size": "3"}, {"size": "3"}, {"size": "128"}, {"size": "128"}]}}}, "dtype": {"type": "DT_FLOAT"}}}, {"name": "StatefulPartitionedCall/StatefulPartitionedCall/transformer/residual/residual3/conv1/StyleNorm/moments/mean/reduction_indices", "op": "Const", "input": ["^Func/StatefulPartitionedCall/StatefulPartitionedCall/input_control_node/_511"], "attr": {"value": {"tensor": {"dtype": "DT_INT32", "tensorShape": {"dim": [{"size": "2"}]}}}, "dtype": {"type": "DT_INT32"}}}, {"name": "StatefulPartitionedCall/StatefulPartitionedCall/transformer/residual/residual3/conv1/StyleNorm/moments/variance/reduction_indices", "op": "Const", "input": ["^Func/StatefulPartitionedCall/StatefulPartitionedCall/input_control_node/_511"], "attr": {"dtype": {"type": "DT_INT32"}, "value": {"tensor": {"dtype": "DT_INT32", "tensorShape": {"dim": [{"size": "2"}]}}}}}, {"name": "StatefulPartitionedCall/StatefulPartitionedCall/transformer/residual/residual3/conv1/StyleNorm/batchnorm/add/y", "op": "Const", "input": ["^Func/StatefulPartitionedCall/StatefulPartitionedCall/input_control_node/_511"], "attr": {"value": {"tensor": {"dtype": "DT_FLOAT", "tensorShape": {}}}, "dtype": {"type": "DT_FLOAT"}}}, {"name": "Func/StatefulPartitionedCall/StatefulPartitionedCall/input/_812", "op": "Const", "input": ["^Func/StatefulPartitionedCall/StatefulPartitionedCall/input_control_node/_511"], "attr": {"value": {"tensor": {"dtype": "DT_FLOAT", "tensorShape": {"dim": [{"size": "1"}, {"size": "1"}, {"size": "768"}, {"size": "128"}]}}}, "dtype": {"type": "DT_FLOAT"}}}, {"name": "Func/StatefulPartitionedCall/StatefulPartitionedCall/input/_813", "op": "Const", "input": ["^Func/StatefulPartitionedCall/StatefulPartitionedCall/input_control_node/_511"], "attr": {"value": {"tensor": {"dtype": "DT_FLOAT", "tensorShape": {"dim": [{"size": "128"}]}}}, "dtype": {"type": "DT_FLOAT"}}}, {"name": "StatefulPartitionedCall/StatefulPartitionedCall/transformer/residual/residual3/conv1/StyleNorm/ExpandDims_2/dim", "op": "Const", "input": ["^Func/StatefulPartitionedCall/StatefulPartitionedCall/input_control_node/_511"], "attr": {"value": {"tensor": {"dtype": "DT_INT32", "tensorShape": {}}}, "dtype": {"type": "DT_INT32"}}}, {"name": "StatefulPartitionedCall/StatefulPartitionedCall/transformer/residual/residual3/conv1/StyleNorm/ExpandDims_3/dim", "op": "Const", "input": ["^Func/StatefulPartitionedCall/StatefulPartitionedCall/input_control_node/_511"], "attr": {"dtype": {"type": "DT_INT32"}, "value": {"tensor": {"dtype": "DT_INT32", "tensorShape": {}}}}}, {"name": "StatefulPartitionedCall/StatefulPartitionedCall/transformer/residual/residual3/MirrorPad_1/paddings", "op": "Const", "input": ["^Func/StatefulPartitionedCall/StatefulPartitionedCall/input_control_node/_511"], "attr": {"dtype": {"type": "DT_INT32"}, "value": {"tensor": {"dtype": "DT_INT32", "tensorShape": {"dim": [{"size": "4"}, {"size": "2"}]}}}}}, {"name": "Func/StatefulPartitionedCall/StatefulPartitionedCall/input/_983", "op": "Const", "input": ["^Func/StatefulPartitionedCall/StatefulPartitionedCall/input_control_node/_511"], "attr": {"value": {"tensor": {"dtype": "DT_FLOAT", "tensorShape": {"dim": [{"size": "3"}, {"size": "3"}, {"size": "128"}, {"size": "128"}]}}}, "dtype": {"type": "DT_FLOAT"}}}, {"name": "StatefulPartitionedCall/StatefulPartitionedCall/transformer/residual/residual3/conv2/StyleNorm/moments/mean/reduction_indices", "op": "Const", "input": ["^Func/StatefulPartitionedCall/StatefulPartitionedCall/input_control_node/_511"], "attr": {"dtype": {"type": "DT_INT32"}, "value": {"tensor": {"dtype": "DT_INT32", "tensorShape": {"dim": [{"size": "2"}]}}}}}, {"name": "StatefulPartitionedCall/StatefulPartitionedCall/transformer/residual/residual3/conv2/StyleNorm/moments/variance/reduction_indices", "op": "Const", "input": ["^Func/StatefulPartitionedCall/StatefulPartitionedCall/input_control_node/_511"], "attr": {"value": {"tensor": {"dtype": "DT_INT32", "tensorShape": {"dim": [{"size": "2"}]}}}, "dtype": {"type": "DT_INT32"}}}, {"name": "StatefulPartitionedCall/StatefulPartitionedCall/transformer/residual/residual3/conv2/StyleNorm/batchnorm/add/y", "op": "Const", "input": ["^Func/StatefulPartitionedCall/StatefulPartitionedCall/input_control_node/_511"], "attr": {"dtype": {"type": "DT_FLOAT"}, "value": {"tensor": {"dtype": "DT_FLOAT", "tensorShape": {}}}}}, {"name": "Func/StatefulPartitionedCall/StatefulPartitionedCall/input/_816", "op": "Const", "input": ["^Func/StatefulPartitionedCall/StatefulPartitionedCall/input_control_node/_511"], "attr": {"value": {"tensor": {"dtype": "DT_FLOAT", "tensorShape": {"dim": [{"size": "1"}, {"size": "1"}, {"size": "768"}, {"size": "128"}]}}}, "dtype": {"type": "DT_FLOAT"}}}, {"name": "Func/StatefulPartitionedCall/StatefulPartitionedCall/input/_817", "op": "Const", "input": ["^Func/StatefulPartitionedCall/StatefulPartitionedCall/input_control_node/_511"], "attr": {"dtype": {"type": "DT_FLOAT"}, "value": {"tensor": {"dtype": "DT_FLOAT", "tensorShape": {"dim": [{"size": "128"}]}}}}}, {"name": "StatefulPartitionedCall/StatefulPartitionedCall/transformer/residual/residual3/conv2/StyleNorm/ExpandDims_2/dim", "op": "Const", "input": ["^Func/StatefulPartitionedCall/StatefulPartitionedCall/input_control_node/_511"], "attr": {"dtype": {"type": "DT_INT32"}, "value": {"tensor": {"dtype": "DT_INT32", "tensorShape": {}}}}}, {"name": "StatefulPartitionedCall/StatefulPartitionedCall/transformer/residual/residual3/conv2/StyleNorm/ExpandDims_3/dim", "op": "Const", "input": ["^Func/StatefulPartitionedCall/StatefulPartitionedCall/input_control_node/_511"], "attr": {"dtype": {"type": "DT_INT32"}, "value": {"tensor": {"dtype": "DT_INT32", "tensorShape": {}}}}}, {"name": "StatefulPartitionedCall/StatefulPartitionedCall/transformer/residual/residual4/MirrorPad/paddings", "op": "Const", "input": ["^Func/StatefulPartitionedCall/StatefulPartitionedCall/input_control_node/_511"], "attr": {"dtype": {"type": "DT_INT32"}, "value": {"tensor": {"dtype": "DT_INT32", "tensorShape": {"dim": [{"size": "4"}, {"size": "2"}]}}}}}, {"name": "Func/StatefulPartitionedCall/StatefulPartitionedCall/input/_984", "op": "Const", "input": ["^Func/StatefulPartitionedCall/StatefulPartitionedCall/input_control_node/_511"], "attr": {"dtype": {"type": "DT_FLOAT"}, "value": {"tensor": {"dtype": "DT_FLOAT", "tensorShape": {"dim": [{"size": "3"}, {"size": "3"}, {"size": "128"}, {"size": "128"}]}}}}}, {"name": "StatefulPartitionedCall/StatefulPartitionedCall/transformer/residual/residual4/conv1/StyleNorm/moments/mean/reduction_indices", "op": "Const", "input": ["^Func/StatefulPartitionedCall/StatefulPartitionedCall/input_control_node/_511"], "attr": {"value": {"tensor": {"dtype": "DT_INT32", "tensorShape": {"dim": [{"size": "2"}]}}}, "dtype": {"type": "DT_INT32"}}}, {"name": "StatefulPartitionedCall/StatefulPartitionedCall/transformer/residual/residual4/conv1/StyleNorm/moments/variance/reduction_indices", "op": "Const", "input": ["^Func/StatefulPartitionedCall/StatefulPartitionedCall/input_control_node/_511"], "attr": {"value": {"tensor": {"dtype": "DT_INT32", "tensorShape": {"dim": [{"size": "2"}]}}}, "dtype": {"type": "DT_INT32"}}}, {"name": "StatefulPartitionedCall/StatefulPartitionedCall/transformer/residual/residual4/conv1/StyleNorm/batchnorm/add/y", "op": "Const", "input": ["^Func/StatefulPartitionedCall/StatefulPartitionedCall/input_control_node/_511"], "attr": {"value": {"tensor": {"dtype": "DT_FLOAT", "tensorShape": {}}}, "dtype": {"type": "DT_FLOAT"}}}, {"name": "Func/StatefulPartitionedCall/StatefulPartitionedCall/input/_820", "op": "Const", "input": ["^Func/StatefulPartitionedCall/StatefulPartitionedCall/input_control_node/_511"], "attr": {"dtype": {"type": "DT_FLOAT"}, "value": {"tensor": {"dtype": "DT_FLOAT", "tensorShape": {"dim": [{"size": "1"}, {"size": "1"}, {"size": "768"}, {"size": "128"}]}}}}}, {"name": "Func/StatefulPartitionedCall/StatefulPartitionedCall/input/_821", "op": "Const", "input": ["^Func/StatefulPartitionedCall/StatefulPartitionedCall/input_control_node/_511"], "attr": {"dtype": {"type": "DT_FLOAT"}, "value": {"tensor": {"dtype": "DT_FLOAT", "tensorShape": {"dim": [{"size": "128"}]}}}}}, {"name": "StatefulPartitionedCall/StatefulPartitionedCall/transformer/residual/residual4/conv1/StyleNorm/ExpandDims_2/dim", "op": "Const", "input": ["^Func/StatefulPartitionedCall/StatefulPartitionedCall/input_control_node/_511"], "attr": {"dtype": {"type": "DT_INT32"}, "value": {"tensor": {"dtype": "DT_INT32", "tensorShape": {}}}}}, {"name": "StatefulPartitionedCall/StatefulPartitionedCall/transformer/residual/residual4/conv1/StyleNorm/ExpandDims_3/dim", "op": "Const", "input": ["^Func/StatefulPartitionedCall/StatefulPartitionedCall/input_control_node/_511"], "attr": {"dtype": {"type": "DT_INT32"}, "value": {"tensor": {"dtype": "DT_INT32", "tensorShape": {}}}}}, {"name": "StatefulPartitionedCall/StatefulPartitionedCall/transformer/residual/residual4/MirrorPad_1/paddings", "op": "Const", "input": ["^Func/StatefulPartitionedCall/StatefulPartitionedCall/input_control_node/_511"], "attr": {"value": {"tensor": {"dtype": "DT_INT32", "tensorShape": {"dim": [{"size": "4"}, {"size": "2"}]}}}, "dtype": {"type": "DT_INT32"}}}, {"name": "Func/StatefulPartitionedCall/StatefulPartitionedCall/input/_985", "op": "Const", "input": ["^Func/StatefulPartitionedCall/StatefulPartitionedCall/input_control_node/_511"], "attr": {"value": {"tensor": {"dtype": "DT_FLOAT", "tensorShape": {"dim": [{"size": "3"}, {"size": "3"}, {"size": "128"}, {"size": "128"}]}}}, "dtype": {"type": "DT_FLOAT"}}}, {"name": "StatefulPartitionedCall/StatefulPartitionedCall/transformer/residual/residual4/conv2/StyleNorm/moments/mean/reduction_indices", "op": "Const", "input": ["^Func/StatefulPartitionedCall/StatefulPartitionedCall/input_control_node/_511"], "attr": {"dtype": {"type": "DT_INT32"}, "value": {"tensor": {"dtype": "DT_INT32", "tensorShape": {"dim": [{"size": "2"}]}}}}}, {"name": "StatefulPartitionedCall/StatefulPartitionedCall/transformer/residual/residual4/conv2/StyleNorm/moments/variance/reduction_indices", "op": "Const", "input": ["^Func/StatefulPartitionedCall/StatefulPartitionedCall/input_control_node/_511"], "attr": {"dtype": {"type": "DT_INT32"}, "value": {"tensor": {"dtype": "DT_INT32", "tensorShape": {"dim": [{"size": "2"}]}}}}}, {"name": "StatefulPartitionedCall/StatefulPartitionedCall/transformer/residual/residual4/conv2/StyleNorm/batchnorm/add/y", "op": "Const", "input": ["^Func/StatefulPartitionedCall/StatefulPartitionedCall/input_control_node/_511"], "attr": {"dtype": {"type": "DT_FLOAT"}, "value": {"tensor": {"dtype": "DT_FLOAT", "tensorShape": {}}}}}, {"name": "Func/StatefulPartitionedCall/StatefulPartitionedCall/input/_824", "op": "Const", "input": ["^Func/StatefulPartitionedCall/StatefulPartitionedCall/input_control_node/_511"], "attr": {"dtype": {"type": "DT_FLOAT"}, "value": {"tensor": {"dtype": "DT_FLOAT", "tensorShape": {"dim": [{"size": "1"}, {"size": "1"}, {"size": "768"}, {"size": "128"}]}}}}}, {"name": "Func/StatefulPartitionedCall/StatefulPartitionedCall/input/_825", "op": "Const", "input": ["^Func/StatefulPartitionedCall/StatefulPartitionedCall/input_control_node/_511"], "attr": {"dtype": {"type": "DT_FLOAT"}, "value": {"tensor": {"dtype": "DT_FLOAT", "tensorShape": {"dim": [{"size": "128"}]}}}}}, {"name": "StatefulPartitionedCall/StatefulPartitionedCall/transformer/residual/residual4/conv2/StyleNorm/ExpandDims_2/dim", "op": "Const", "input": ["^Func/StatefulPartitionedCall/StatefulPartitionedCall/input_control_node/_511"], "attr": {"value": {"tensor": {"dtype": "DT_INT32", "tensorShape": {}}}, "dtype": {"type": "DT_INT32"}}}, {"name": "StatefulPartitionedCall/StatefulPartitionedCall/transformer/residual/residual4/conv2/StyleNorm/ExpandDims_3/dim", "op": "Const", "input": ["^Func/StatefulPartitionedCall/StatefulPartitionedCall/input_control_node/_511"], "attr": {"dtype": {"type": "DT_INT32"}, "value": {"tensor": {"dtype": "DT_INT32", "tensorShape": {}}}}}, {"name": "StatefulPartitionedCall/StatefulPartitionedCall/transformer/residual/residual5/MirrorPad/paddings", "op": "Const", "input": ["^Func/StatefulPartitionedCall/StatefulPartitionedCall/input_control_node/_511"], "attr": {"value": {"tensor": {"dtype": "DT_INT32", "tensorShape": {"dim": [{"size": "4"}, {"size": "2"}]}}}, "dtype": {"type": "DT_INT32"}}}, {"name": "Func/StatefulPartitionedCall/StatefulPartitionedCall/input/_986", "op": "Const", "input": ["^Func/StatefulPartitionedCall/StatefulPartitionedCall/input_control_node/_511"], "attr": {"dtype": {"type": "DT_FLOAT"}, "value": {"tensor": {"dtype": "DT_FLOAT", "tensorShape": {"dim": [{"size": "3"}, {"size": "3"}, {"size": "128"}, {"size": "128"}]}}}}}, {"name": "StatefulPartitionedCall/StatefulPartitionedCall/transformer/residual/residual5/conv1/StyleNorm/moments/mean/reduction_indices", "op": "Const", "input": ["^Func/StatefulPartitionedCall/StatefulPartitionedCall/input_control_node/_511"], "attr": {"value": {"tensor": {"dtype": "DT_INT32", "tensorShape": {"dim": [{"size": "2"}]}}}, "dtype": {"type": "DT_INT32"}}}, {"name": "StatefulPartitionedCall/StatefulPartitionedCall/transformer/residual/residual5/conv1/StyleNorm/moments/variance/reduction_indices", "op": "Const", "input": ["^Func/StatefulPartitionedCall/StatefulPartitionedCall/input_control_node/_511"], "attr": {"dtype": {"type": "DT_INT32"}, "value": {"tensor": {"dtype": "DT_INT32", "tensorShape": {"dim": [{"size": "2"}]}}}}}, {"name": "StatefulPartitionedCall/StatefulPartitionedCall/transformer/residual/residual5/conv1/StyleNorm/batchnorm/add/y", "op": "Const", "input": ["^Func/StatefulPartitionedCall/StatefulPartitionedCall/input_control_node/_511"], "attr": {"dtype": {"type": "DT_FLOAT"}, "value": {"tensor": {"dtype": "DT_FLOAT", "tensorShape": {}}}}}, {"name": "Func/StatefulPartitionedCall/StatefulPartitionedCall/input/_828", "op": "Const", "input": ["^Func/StatefulPartitionedCall/StatefulPartitionedCall/input_control_node/_511"], "attr": {"dtype": {"type": "DT_FLOAT"}, "value": {"tensor": {"dtype": "DT_FLOAT", "tensorShape": {"dim": [{"size": "1"}, {"size": "1"}, {"size": "768"}, {"size": "128"}]}}}}}, {"name": "Func/StatefulPartitionedCall/StatefulPartitionedCall/input/_829", "op": "Const", "input": ["^Func/StatefulPartitionedCall/StatefulPartitionedCall/input_control_node/_511"], "attr": {"dtype": {"type": "DT_FLOAT"}, "value": {"tensor": {"dtype": "DT_FLOAT", "tensorShape": {"dim": [{"size": "128"}]}}}}}, {"name": "StatefulPartitionedCall/StatefulPartitionedCall/transformer/residual/residual5/conv1/StyleNorm/ExpandDims_2/dim", "op": "Const", "input": ["^Func/StatefulPartitionedCall/StatefulPartitionedCall/input_control_node/_511"], "attr": {"dtype": {"type": "DT_INT32"}, "value": {"tensor": {"dtype": "DT_INT32", "tensorShape": {}}}}}, {"name": "StatefulPartitionedCall/StatefulPartitionedCall/transformer/residual/residual5/conv1/StyleNorm/ExpandDims_3/dim", "op": "Const", "input": ["^Func/StatefulPartitionedCall/StatefulPartitionedCall/input_control_node/_511"], "attr": {"dtype": {"type": "DT_INT32"}, "value": {"tensor": {"dtype": "DT_INT32", "tensorShape": {}}}}}, {"name": "StatefulPartitionedCall/StatefulPartitionedCall/transformer/residual/residual5/MirrorPad_1/paddings", "op": "Const", "input": ["^Func/StatefulPartitionedCall/StatefulPartitionedCall/input_control_node/_511"], "attr": {"value": {"tensor": {"dtype": "DT_INT32", "tensorShape": {"dim": [{"size": "4"}, {"size": "2"}]}}}, "dtype": {"type": "DT_INT32"}}}, {"name": "Func/StatefulPartitionedCall/StatefulPartitionedCall/input/_987", "op": "Const", "input": ["^Func/StatefulPartitionedCall/StatefulPartitionedCall/input_control_node/_511"], "attr": {"dtype": {"type": "DT_FLOAT"}, "value": {"tensor": {"dtype": "DT_FLOAT", "tensorShape": {"dim": [{"size": "3"}, {"size": "3"}, {"size": "128"}, {"size": "128"}]}}}}}, {"name": "StatefulPartitionedCall/StatefulPartitionedCall/transformer/residual/residual5/conv2/StyleNorm/moments/mean/reduction_indices", "op": "Const", "input": ["^Func/StatefulPartitionedCall/StatefulPartitionedCall/input_control_node/_511"], "attr": {"dtype": {"type": "DT_INT32"}, "value": {"tensor": {"dtype": "DT_INT32", "tensorShape": {"dim": [{"size": "2"}]}}}}}, {"name": "StatefulPartitionedCall/StatefulPartitionedCall/transformer/residual/residual5/conv2/StyleNorm/moments/variance/reduction_indices", "op": "Const", "input": ["^Func/StatefulPartitionedCall/StatefulPartitionedCall/input_control_node/_511"], "attr": {"value": {"tensor": {"dtype": "DT_INT32", "tensorShape": {"dim": [{"size": "2"}]}}}, "dtype": {"type": "DT_INT32"}}}, {"name": "StatefulPartitionedCall/StatefulPartitionedCall/transformer/residual/residual5/conv2/StyleNorm/batchnorm/add/y", "op": "Const", "input": ["^Func/StatefulPartitionedCall/StatefulPartitionedCall/input_control_node/_511"], "attr": {"value": {"tensor": {"dtype": "DT_FLOAT", "tensorShape": {}}}, "dtype": {"type": "DT_FLOAT"}}}, {"name": "Func/StatefulPartitionedCall/StatefulPartitionedCall/input/_832", "op": "Const", "input": ["^Func/StatefulPartitionedCall/StatefulPartitionedCall/input_control_node/_511"], "attr": {"value": {"tensor": {"dtype": "DT_FLOAT", "tensorShape": {"dim": [{"size": "1"}, {"size": "1"}, {"size": "768"}, {"size": "128"}]}}}, "dtype": {"type": "DT_FLOAT"}}}, {"name": "Func/StatefulPartitionedCall/StatefulPartitionedCall/input/_833", "op": "Const", "input": ["^Func/StatefulPartitionedCall/StatefulPartitionedCall/input_control_node/_511"], "attr": {"dtype": {"type": "DT_FLOAT"}, "value": {"tensor": {"dtype": "DT_FLOAT", "tensorShape": {"dim": [{"size": "128"}]}}}}}, {"name": "StatefulPartitionedCall/StatefulPartitionedCall/transformer/residual/residual5/conv2/StyleNorm/ExpandDims_2/dim", "op": "Const", "input": ["^Func/StatefulPartitionedCall/StatefulPartitionedCall/input_control_node/_511"], "attr": {"dtype": {"type": "DT_INT32"}, "value": {"tensor": {"dtype": "DT_INT32", "tensorShape": {}}}}}, {"name": "StatefulPartitionedCall/StatefulPartitionedCall/transformer/residual/residual5/conv2/StyleNorm/ExpandDims_3/dim", "op": "Const", "input": ["^Func/StatefulPartitionedCall/StatefulPartitionedCall/input_control_node/_511"], "attr": {"dtype": {"type": "DT_INT32"}, "value": {"tensor": {"dtype": "DT_INT32", "tensorShape": {}}}}}, {"name": "StatefulPartitionedCall/StatefulPartitionedCall/transformer/residual/residual6/MirrorPad/paddings", "op": "Const", "input": ["^Func/StatefulPartitionedCall/StatefulPartitionedCall/input_control_node/_511"], "attr": {"value": {"tensor": {"dtype": "DT_INT32", "tensorShape": {"dim": [{"size": "4"}, {"size": "2"}]}}}, "dtype": {"type": "DT_INT32"}}}, {"name": "Func/StatefulPartitionedCall/StatefulPartitionedCall/input/_988", "op": "Const", "input": ["^Func/StatefulPartitionedCall/StatefulPartitionedCall/input_control_node/_511"], "attr": {"value": {"tensor": {"dtype": "DT_FLOAT", "tensorShape": {"dim": [{"size": "3"}, {"size": "3"}, {"size": "128"}, {"size": "128"}]}}}, "dtype": {"type": "DT_FLOAT"}}}, {"name": "StatefulPartitionedCall/StatefulPartitionedCall/transformer/residual/residual6/conv1/StyleNorm/moments/mean/reduction_indices", "op": "Const", "input": ["^Func/StatefulPartitionedCall/StatefulPartitionedCall/input_control_node/_511"], "attr": {"value": {"tensor": {"dtype": "DT_INT32", "tensorShape": {"dim": [{"size": "2"}]}}}, "dtype": {"type": "DT_INT32"}}}, {"name": "StatefulPartitionedCall/StatefulPartitionedCall/transformer/residual/residual6/conv1/StyleNorm/moments/variance/reduction_indices", "op": "Const", "input": ["^Func/StatefulPartitionedCall/StatefulPartitionedCall/input_control_node/_511"], "attr": {"value": {"tensor": {"dtype": "DT_INT32", "tensorShape": {"dim": [{"size": "2"}]}}}, "dtype": {"type": "DT_INT32"}}}, {"name": "StatefulPartitionedCall/StatefulPartitionedCall/transformer/residual/residual6/conv1/StyleNorm/batchnorm/add/y", "op": "Const", "input": ["^Func/StatefulPartitionedCall/StatefulPartitionedCall/input_control_node/_511"], "attr": {"value": {"tensor": {"dtype": "DT_FLOAT", "tensorShape": {}}}, "dtype": {"type": "DT_FLOAT"}}}, {"name": "Func/StatefulPartitionedCall/StatefulPartitionedCall/input/_836", "op": "Const", "input": ["^Func/StatefulPartitionedCall/StatefulPartitionedCall/input_control_node/_511"], "attr": {"value": {"tensor": {"dtype": "DT_FLOAT", "tensorShape": {"dim": [{"size": "1"}, {"size": "1"}, {"size": "768"}, {"size": "128"}]}}}, "dtype": {"type": "DT_FLOAT"}}}, {"name": "Func/StatefulPartitionedCall/StatefulPartitionedCall/input/_837", "op": "Const", "input": ["^Func/StatefulPartitionedCall/StatefulPartitionedCall/input_control_node/_511"], "attr": {"value": {"tensor": {"dtype": "DT_FLOAT", "tensorShape": {"dim": [{"size": "128"}]}}}, "dtype": {"type": "DT_FLOAT"}}}, {"name": "StatefulPartitionedCall/StatefulPartitionedCall/transformer/residual/residual6/conv1/StyleNorm/ExpandDims_2/dim", "op": "Const", "input": ["^Func/StatefulPartitionedCall/StatefulPartitionedCall/input_control_node/_511"], "attr": {"value": {"tensor": {"dtype": "DT_INT32", "tensorShape": {}}}, "dtype": {"type": "DT_INT32"}}}, {"name": "StatefulPartitionedCall/StatefulPartitionedCall/transformer/residual/residual6/conv1/StyleNorm/ExpandDims_3/dim", "op": "Const", "input": ["^Func/StatefulPartitionedCall/StatefulPartitionedCall/input_control_node/_511"], "attr": {"value": {"tensor": {"dtype": "DT_INT32", "tensorShape": {}}}, "dtype": {"type": "DT_INT32"}}}, {"name": "StatefulPartitionedCall/StatefulPartitionedCall/transformer/residual/residual6/MirrorPad_1/paddings", "op": "Const", "input": ["^Func/StatefulPartitionedCall/StatefulPartitionedCall/input_control_node/_511"], "attr": {"dtype": {"type": "DT_INT32"}, "value": {"tensor": {"dtype": "DT_INT32", "tensorShape": {"dim": [{"size": "4"}, {"size": "2"}]}}}}}, {"name": "Func/StatefulPartitionedCall/StatefulPartitionedCall/input/_989", "op": "Const", "input": ["^Func/StatefulPartitionedCall/StatefulPartitionedCall/input_control_node/_511"], "attr": {"value": {"tensor": {"dtype": "DT_FLOAT", "tensorShape": {"dim": [{"size": "3"}, {"size": "3"}, {"size": "128"}, {"size": "128"}]}}}, "dtype": {"type": "DT_FLOAT"}}}, {"name": "StatefulPartitionedCall/StatefulPartitionedCall/transformer/residual/residual6/conv2/StyleNorm/moments/mean/reduction_indices", "op": "Const", "input": ["^Func/StatefulPartitionedCall/StatefulPartitionedCall/input_control_node/_511"], "attr": {"value": {"tensor": {"dtype": "DT_INT32", "tensorShape": {"dim": [{"size": "2"}]}}}, "dtype": {"type": "DT_INT32"}}}, {"name": "StatefulPartitionedCall/StatefulPartitionedCall/transformer/residual/residual6/conv2/StyleNorm/moments/variance/reduction_indices", "op": "Const", "input": ["^Func/StatefulPartitionedCall/StatefulPartitionedCall/input_control_node/_511"], "attr": {"value": {"tensor": {"dtype": "DT_INT32", "tensorShape": {"dim": [{"size": "2"}]}}}, "dtype": {"type": "DT_INT32"}}}, {"name": "StatefulPartitionedCall/StatefulPartitionedCall/transformer/residual/residual6/conv2/StyleNorm/batchnorm/add/y", "op": "Const", "input": ["^Func/StatefulPartitionedCall/StatefulPartitionedCall/input_control_node/_511"], "attr": {"dtype": {"type": "DT_FLOAT"}, "value": {"tensor": {"dtype": "DT_FLOAT", "tensorShape": {}}}}}, {"name": "Func/StatefulPartitionedCall/StatefulPartitionedCall/input/_840", "op": "Const", "input": ["^Func/StatefulPartitionedCall/StatefulPartitionedCall/input_control_node/_511"], "attr": {"value": {"tensor": {"dtype": "DT_FLOAT", "tensorShape": {"dim": [{"size": "1"}, {"size": "1"}, {"size": "768"}, {"size": "128"}]}}}, "dtype": {"type": "DT_FLOAT"}}}, {"name": "Func/StatefulPartitionedCall/StatefulPartitionedCall/input/_841", "op": "Const", "input": ["^Func/StatefulPartitionedCall/StatefulPartitionedCall/input_control_node/_511"], "attr": {"value": {"tensor": {"dtype": "DT_FLOAT", "tensorShape": {"dim": [{"size": "128"}]}}}, "dtype": {"type": "DT_FLOAT"}}}, {"name": "StatefulPartitionedCall/StatefulPartitionedCall/transformer/residual/residual6/conv2/StyleNorm/ExpandDims_2/dim", "op": "Const", "input": ["^Func/StatefulPartitionedCall/StatefulPartitionedCall/input_control_node/_511"], "attr": {"value": {"tensor": {"dtype": "DT_INT32", "tensorShape": {}}}, "dtype": {"type": "DT_INT32"}}}, {"name": "StatefulPartitionedCall/StatefulPartitionedCall/transformer/residual/residual6/conv2/StyleNorm/ExpandDims_3/dim", "op": "Const", "input": ["^Func/StatefulPartitionedCall/StatefulPartitionedCall/input_control_node/_511"], "attr": {"dtype": {"type": "DT_INT32"}, "value": {"tensor": {"dtype": "DT_INT32", "tensorShape": {}}}}}, {"name": "StatefulPartitionedCall/StatefulPartitionedCall/transformer/residual/residual7/MirrorPad/paddings", "op": "Const", "input": ["^Func/StatefulPartitionedCall/StatefulPartitionedCall/input_control_node/_511"], "attr": {"dtype": {"type": "DT_INT32"}, "value": {"tensor": {"dtype": "DT_INT32", "tensorShape": {"dim": [{"size": "4"}, {"size": "2"}]}}}}}, {"name": "Func/StatefulPartitionedCall/StatefulPartitionedCall/input/_990", "op": "Const", "input": ["^Func/StatefulPartitionedCall/StatefulPartitionedCall/input_control_node/_511"], "attr": {"value": {"tensor": {"dtype": "DT_FLOAT", "tensorShape": {"dim": [{"size": "3"}, {"size": "3"}, {"size": "128"}, {"size": "128"}]}}}, "dtype": {"type": "DT_FLOAT"}}}, {"name": "StatefulPartitionedCall/StatefulPartitionedCall/transformer/residual/residual7/conv1/StyleNorm/moments/mean/reduction_indices", "op": "Const", "input": ["^Func/StatefulPartitionedCall/StatefulPartitionedCall/input_control_node/_511"], "attr": {"dtype": {"type": "DT_INT32"}, "value": {"tensor": {"dtype": "DT_INT32", "tensorShape": {"dim": [{"size": "2"}]}}}}}, {"name": "StatefulPartitionedCall/StatefulPartitionedCall/transformer/residual/residual7/conv1/StyleNorm/moments/variance/reduction_indices", "op": "Const", "input": ["^Func/StatefulPartitionedCall/StatefulPartitionedCall/input_control_node/_511"], "attr": {"dtype": {"type": "DT_INT32"}, "value": {"tensor": {"dtype": "DT_INT32", "tensorShape": {"dim": [{"size": "2"}]}}}}}, {"name": "StatefulPartitionedCall/StatefulPartitionedCall/transformer/residual/residual7/conv1/StyleNorm/batchnorm/add/y", "op": "Const", "input": ["^Func/StatefulPartitionedCall/StatefulPartitionedCall/input_control_node/_511"], "attr": {"value": {"tensor": {"dtype": "DT_FLOAT", "tensorShape": {}}}, "dtype": {"type": "DT_FLOAT"}}}, {"name": "Func/StatefulPartitionedCall/StatefulPartitionedCall/input/_844", "op": "Const", "input": ["^Func/StatefulPartitionedCall/StatefulPartitionedCall/input_control_node/_511"], "attr": {"dtype": {"type": "DT_FLOAT"}, "value": {"tensor": {"dtype": "DT_FLOAT", "tensorShape": {"dim": [{"size": "1"}, {"size": "1"}, {"size": "768"}, {"size": "128"}]}}}}}, {"name": "Func/StatefulPartitionedCall/StatefulPartitionedCall/input/_845", "op": "Const", "input": ["^Func/StatefulPartitionedCall/StatefulPartitionedCall/input_control_node/_511"], "attr": {"value": {"tensor": {"dtype": "DT_FLOAT", "tensorShape": {"dim": [{"size": "128"}]}}}, "dtype": {"type": "DT_FLOAT"}}}, {"name": "StatefulPartitionedCall/StatefulPartitionedCall/transformer/residual/residual7/conv1/StyleNorm/ExpandDims_2/dim", "op": "Const", "input": ["^Func/StatefulPartitionedCall/StatefulPartitionedCall/input_control_node/_511"], "attr": {"value": {"tensor": {"dtype": "DT_INT32", "tensorShape": {}}}, "dtype": {"type": "DT_INT32"}}}, {"name": "StatefulPartitionedCall/StatefulPartitionedCall/transformer/residual/residual7/conv1/StyleNorm/ExpandDims_3/dim", "op": "Const", "input": ["^Func/StatefulPartitionedCall/StatefulPartitionedCall/input_control_node/_511"], "attr": {"dtype": {"type": "DT_INT32"}, "value": {"tensor": {"dtype": "DT_INT32", "tensorShape": {}}}}}, {"name": "StatefulPartitionedCall/StatefulPartitionedCall/transformer/residual/residual7/MirrorPad_1/paddings", "op": "Const", "input": ["^Func/StatefulPartitionedCall/StatefulPartitionedCall/input_control_node/_511"], "attr": {"value": {"tensor": {"dtype": "DT_INT32", "tensorShape": {"dim": [{"size": "4"}, {"size": "2"}]}}}, "dtype": {"type": "DT_INT32"}}}, {"name": "Func/StatefulPartitionedCall/StatefulPartitionedCall/input/_991", "op": "Const", "input": ["^Func/StatefulPartitionedCall/StatefulPartitionedCall/input_control_node/_511"], "attr": {"dtype": {"type": "DT_FLOAT"}, "value": {"tensor": {"dtype": "DT_FLOAT", "tensorShape": {"dim": [{"size": "3"}, {"size": "3"}, {"size": "128"}, {"size": "128"}]}}}}}, {"name": "StatefulPartitionedCall/StatefulPartitionedCall/transformer/residual/residual7/conv2/StyleNorm/moments/mean/reduction_indices", "op": "Const", "input": ["^Func/StatefulPartitionedCall/StatefulPartitionedCall/input_control_node/_511"], "attr": {"dtype": {"type": "DT_INT32"}, "value": {"tensor": {"dtype": "DT_INT32", "tensorShape": {"dim": [{"size": "2"}]}}}}}, {"name": "StatefulPartitionedCall/StatefulPartitionedCall/transformer/residual/residual7/conv2/StyleNorm/moments/variance/reduction_indices", "op": "Const", "input": ["^Func/StatefulPartitionedCall/StatefulPartitionedCall/input_control_node/_511"], "attr": {"dtype": {"type": "DT_INT32"}, "value": {"tensor": {"dtype": "DT_INT32", "tensorShape": {"dim": [{"size": "2"}]}}}}}, {"name": "StatefulPartitionedCall/StatefulPartitionedCall/transformer/residual/residual7/conv2/StyleNorm/batchnorm/add/y", "op": "Const", "input": ["^Func/StatefulPartitionedCall/StatefulPartitionedCall/input_control_node/_511"], "attr": {"dtype": {"type": "DT_FLOAT"}, "value": {"tensor": {"dtype": "DT_FLOAT", "tensorShape": {}}}}}, {"name": "Func/StatefulPartitionedCall/StatefulPartitionedCall/input/_848", "op": "Const", "input": ["^Func/StatefulPartitionedCall/StatefulPartitionedCall/input_control_node/_511"], "attr": {"dtype": {"type": "DT_FLOAT"}, "value": {"tensor": {"dtype": "DT_FLOAT", "tensorShape": {"dim": [{"size": "1"}, {"size": "1"}, {"size": "768"}, {"size": "128"}]}}}}}, {"name": "Func/StatefulPartitionedCall/StatefulPartitionedCall/input/_849", "op": "Const", "input": ["^Func/StatefulPartitionedCall/StatefulPartitionedCall/input_control_node/_511"], "attr": {"value": {"tensor": {"dtype": "DT_FLOAT", "tensorShape": {"dim": [{"size": "128"}]}}}, "dtype"…
artitionedCall/transformer/residual/residual4/MirrorPad_1/paddings", "shape": [4, 2], "dtype": "int32"}, {"name": "Func/StatefulPartitionedCall/StatefulPartitionedCall/input/_985", "shape": [3, 3, 128, 128], "dtype": "float32"}, {"name": "StatefulPartitionedCall/StatefulPartitionedCall/transformer/residual/residual4/conv2/StyleNorm/moments/mean/reduction_indices", "shape": [2], "dtype": "int32"}, {"name": "StatefulPartitionedCall/StatefulPartitionedCall/transformer/residual/residual4/conv2/StyleNorm/moments/variance/reduction_indices", "shape": [2], "dtype": "int32"}, {"name": "StatefulPartitionedCall/StatefulPartitionedCall/transformer/residual/residual4/conv2/StyleNorm/batchnorm/add/y", "shape": [], "dtype": "float32"}, {"name": "Func/StatefulPartitionedCall/StatefulPartitionedCall/input/_824", "shape": [1, 1, 768, 128], "dtype": "float32"}, {"name": "Func/StatefulPartitionedCall/StatefulPartitionedCall/input/_825", "shape": [128], "dtype": "float32"}, {"name": "StatefulPartitionedCall/StatefulPartitionedCall/transformer/residual/residual4/conv2/StyleNorm/ExpandDims_2/dim", "shape": [], "dtype": "int32"}, {"name": "StatefulPartitionedCall/StatefulPartitionedCall/transformer/residual/residual4/conv2/StyleNorm/ExpandDims_3/dim", "shape": [], "dtype": "int32"}, {"name": "StatefulPartitionedCall/StatefulPartitionedCall/transformer/residual/residual5/MirrorPad/paddings", "shape": [4, 2], "dtype": "int32"}, {"name": "Func/StatefulPartitionedCall/StatefulPartitionedCall/input/_986", "shape": [3, 3, 128, 128], "dtype": "float32"}, {"name": "StatefulPartitionedCall/StatefulPartitionedCall/transformer/residual/residual5/conv1/StyleNorm/moments/mean/reduction_indices", "shape": [2], "dtype": "int32"}, {"name": "StatefulPartitionedCall/StatefulPartitionedCall/transformer/residual/residual5/conv1/StyleNorm/moments/variance/reduction_indices", "shape": [2], "dtype": "int32"}, {"name": "StatefulPartitionedCall/StatefulPartitionedCall/transformer/residual/residual5/conv1/StyleNorm/batchnorm/add/y", "shape": [], "dtype": "float32"}, {"name": "Func/StatefulPartitionedCall/StatefulPartitionedCall/input/_828", "shape": [1, 1, 768, 128], "dtype": "float32"}, {"name": "Func/StatefulPartitionedCall/StatefulPartitionedCall/input/_829", "shape": [128], "dtype": "float32"}, {"name": "StatefulPartitionedCall/StatefulPartitionedCall/transformer/residual/residual5/conv1/StyleNorm/ExpandDims_2/dim", "shape": [], "dtype": "int32"}, {"name": "StatefulPartitionedCall/StatefulPartitionedCall/transformer/residual/residual5/conv1/StyleNorm/ExpandDims_3/dim", "shape": [], "dtype": "int32"}, {"name": "StatefulPartitionedCall/StatefulPartitionedCall/transformer/residual/residual5/MirrorPad_1/paddings", "shape": [4, 2], "dtype": "int32"}, {"name": "Func/StatefulPartitionedCall/StatefulPartitionedCall/input/_987", "shape": [3, 3, 128, 128], "dtype": "float32"}, {"name": "StatefulPartitionedCall/StatefulPartitionedCall/transformer/residual/residual5/conv2/StyleNorm/moments/mean/reduction_indices", "shape": [2], "dtype": "int32"}, {"name": "StatefulPartitionedCall/StatefulPartitionedCall/transformer/residual/residual5/conv2/StyleNorm/moments/variance/reduction_indices", "shape": [2], "dtype": "int32"}, {"name": "StatefulPartitionedCall/StatefulPartitionedCall/transformer/residual/residual5/conv2/StyleNorm/batchnorm/add/y", "shape": [], "dtype": "float32"}, {"name": "Func/StatefulPartitionedCall/StatefulPartitionedCall/input/_832", "shape": [1, 1, 768, 128], "dtype": "float32"}, {"name": "Func/StatefulPartitionedCall/StatefulPartitionedCall/input/_833", "shape": [128], "dtype": "float32"}, {"name": "StatefulPartitionedCall/StatefulPartitionedCall/transformer/residual/residual5/conv2/StyleNorm/ExpandDims_2/dim", "shape": [], "dtype": "int32"}, {"name": "StatefulPartitionedCall/StatefulPartitionedCall/transformer/residual/residual5/conv2/StyleNorm/ExpandDims_3/dim", "shape": [], "dtype": "int32"}, {"name": "StatefulPartitionedCall/StatefulPartitionedCall/transformer/residual/residual6/MirrorPad/paddings", "shape": [4, 2], "dtype": "int32"}, {"name": "Func/StatefulPartitionedCall/StatefulPartitionedCall/input/_988", "shape": [3, 3, 128, 128], "dtype": "float32"}, {"name": "StatefulPartitionedCall/StatefulPartitionedCall/transformer/residual/residual6/conv1/StyleNorm/moments/mean/reduction_indices", "shape": [2], "dtype": "int32"}, {"name": "StatefulPartitionedCall/StatefulPartitionedCall/transformer/residual/residual6/conv1/StyleNorm/moments/variance/reduction_indices", "shape": [2], "dtype": "int32"}, {"name": "StatefulPartitionedCall/StatefulPartitionedCall/transformer/residual/residual6/conv1/StyleNorm/batchnorm/add/y", "shape": [], "dtype": "float32"}, {"name": "Func/StatefulPartitionedCall/StatefulPartitionedCall/input/_836", "shape": [1, 1, 768, 128], "dtype": "float32"}, {"name": "Func/StatefulPartitionedCall/StatefulPartitionedCall/input/_837", "shape": [128], "dtype": "float32"}, {"name": "StatefulPartitionedCall/StatefulPartitionedCall/transformer/residual/residual6/conv1/StyleNorm/ExpandDims_2/dim", "shape": [], "dtype": "int32"}, {"name": "StatefulPartitionedCall/StatefulPartitionedCall/transformer/residual/residual6/conv1/StyleNorm/ExpandDims_3/dim", "shape": [], "dtype": "int32"}, {"name": "StatefulPartitionedCall/StatefulPartitionedCall/transformer/residual/residual6/MirrorPad_1/paddings", "shape": [4, 2], "dtype": "int32"}, {"name": "Func/StatefulPartitionedCall/StatefulPartitionedCall/input/_989", "shape": [3, 3, 128, 128], "dtype": "float32"}, {"name": "StatefulPartitionedCall/StatefulPartitionedCall/transformer/residual/residual6/conv2/StyleNorm/moments/mean/reduction_indices", "shape": [2], "dtype": "int32"}, {"name": "StatefulPartitionedCall/StatefulPartitionedCall/transformer/residual/residual6/conv2/StyleNorm/moments/variance/reduction_indices", "shape": [2], "dtype": "int32"}, {"name": "StatefulPartitionedCall/StatefulPartitionedCall/transformer/residual/residual6/conv2/StyleNorm/batchnorm/add/y", "shape": [], "dtype": "float32"}, {"name": "Func/StatefulPartitionedCall/StatefulPartitionedCall/input/_840", "shape": [1, 1, 768, 128], "dtype": "float32"}, {"name": "Func/StatefulPartitionedCall/StatefulPartitionedCall/input/_841", "shape": [128], "dtype": "float32"}, {"name": "StatefulPartitionedCall/StatefulPartitionedCall/transformer/residual/residual6/conv2/StyleNorm/ExpandDims_2/dim", "shape": [], "dtype": "int32"}, {"name": "StatefulPartitionedCall/StatefulPartitionedCall/transformer/residual/residual6/conv2/StyleNorm/ExpandDims_3/dim", "shape": [], "dtype": "int32"}, {"name": "StatefulPartitionedCall/StatefulPartitionedCall/transformer/residual/residual7/MirrorPad/paddings", "shape": [4, 2], "dtype": "int32"}, {"name": "Func/StatefulPartitionedCall/StatefulPartitionedCall/input/_990", "shape": [3, 3, 128, 128], "dtype": "float32"}, {"name": "StatefulPartitionedCall/StatefulPartitionedCall/transformer/residual/residual7/conv1/StyleNorm/moments/mean/reduction_indices", "shape": [2], "dtype": "int32"}, {"name": "StatefulPartitionedCall/StatefulPartitionedCall/transformer/residual/residual7/conv1/StyleNorm/moments/variance/reduction_indices", "shape": [2], "dtype": "int32"}, {"name": "StatefulPartitionedCall/StatefulPartitionedCall/transformer/residual/residual7/conv1/StyleNorm/batchnorm/add/y", "shape": [], "dtype": "float32"}, {"name": "Func/StatefulPartitionedCall/StatefulPartitionedCall/input/_844", "shape": [1, 1, 768, 128], "dtype": "float32"}, {"name": "Func/StatefulPartitionedCall/StatefulPartitionedCall/input/_845", "shape": [128], "dtype": "float32"}, {"name": "StatefulPartitionedCall/StatefulPartitionedCall/transformer/residual/residual7/conv1/StyleNorm/ExpandDims_2/dim", "shape": [], "dtype": "int32"}, {"name": "StatefulPartitionedCall/StatefulPartitionedCall/transformer/residual/residual7/conv1/StyleNorm/ExpandDims_3/dim", "shape": [], "dtype": "int32"}, {"name": "StatefulPartitionedCall/StatefulPartitionedCall/transformer/residual/residual7/MirrorPad_1/paddings", "shape": [4, 2], "dtype": "int32"}, {"name": "Func/StatefulPartitionedCall/StatefulPartitionedCall/input/_991", "shape": [3, 3, 128, 128], "dtype": "float32"}, {"name": "StatefulPartitionedCall/StatefulPartitionedCall/transformer/residual/residual7/conv2/StyleNorm/moments/mean/reduction_indices", "shape": [2], "dtype": "int32"}, {"name": "StatefulPartitionedCall/StatefulPartitionedCall/transformer/residual/residual7/conv2/StyleNorm/moments/variance/reduction_indices", "shape": [2], "dtype": "int32"}, {"name": "StatefulPartitionedCall/StatefulPartitionedCall/transformer/residual/residual7/conv2/StyleNorm/batchnorm/add/y", "shape": [], "dtype": "float32"}, {"name": "Func/StatefulPartitionedCall/StatefulPartitionedCall/input/_848", "shape": [1, 1, 768, 128], "dtype": "float32"}, {"name": "Func/StatefulPartitionedCall/StatefulPartitionedCall/input/_849", "shape": [128], "dtype": "float32"}, {"name": "StatefulPartitionedCall/StatefulPartitionedCall/transformer/residual/residual7/conv2/StyleNorm/ExpandDims_2/dim", "shape": [], "dtype": "int32"}, {"name": "StatefulPartitionedCall/StatefulPartitionedCall/transformer/residual/residual7/conv2/StyleNorm/ExpandDims_3/dim", "shape": [], "dtype": "int32"}, {"name": "StatefulPartitionedCall/StatefulPartitionedCall/transformer/residual/residual8/MirrorPad/paddings", "shape": [4, 2], "dtype": "int32"}, {"name": "Func/StatefulPartitionedCall/StatefulPartitionedCall/input/_992", "shape": [3, 3, 128, 128], "dtype": "float32"}, {"name": "StatefulPartitionedCall/StatefulPartitionedCall/transformer/residual/residual8/conv1/StyleNorm/moments/mean/reduction_indices", "shape": [2], "dtype": "int32"}, {"name": "StatefulPartitionedCall/StatefulPartitionedCall/transformer/residual/residual8/conv1/StyleNorm/moments/variance/reduction_indices", "shape": [2], "dtype": "int32"}, {"name": "StatefulPartitionedCall/StatefulPartitionedCall/transformer/residual/residual8/conv1/StyleNorm/batchnorm/add/y", "shape": [], "dtype": "float32"}, {"name": "Func/StatefulPartitionedCall/StatefulPartitionedCall/input/_852", "shape": [1, 1, 768, 128], "dtype": "float32"}, {"name": "Func/StatefulPartitionedCall/StatefulPartitionedCall/input/_853", "shape": [128], "dtype": "float32"}, {"name": "StatefulPartitionedCall/StatefulPartitionedCall/transformer/residual/residual8/conv1/StyleNorm/ExpandDims_2/dim", "shape": [], "dtype": "int32"}, {"name": "StatefulPartitionedCall/StatefulPartitionedCall/transformer/residual/residual8/conv1/StyleNorm/ExpandDims_3/dim", "shape": [], "dtype": "int32"}, {"name": "StatefulPartitionedCall/StatefulPartitionedCall/transformer/residual/residual8/MirrorPad_1/paddings", "shape": [4, 2], "dtype": "int32"}, {"name": "Func/StatefulPartitionedCall/StatefulPartitionedCall/input/_993", "shape": [3, 3, 128, 128], "dtype": "float32"}, {"name": "StatefulPartitionedCall/StatefulPartitionedCall/transformer/residual/residual8/conv2/StyleNorm/moments/mean/reduction_indices", "shape": [2], "dtype": "int32"}, {"name": "StatefulPartitionedCall/StatefulPartitionedCall/transformer/residual/residual8/conv2/StyleNorm/moments/variance/reduction_indices", "shape": [2], "dtype": "int32"}, {"name": "StatefulPartitionedCall/StatefulPartitionedCall/transformer/residual/residual8/conv2/StyleNorm/batchnorm/add/y", "shape": [], "dtype": "float32"}, {"name": "Func/StatefulPartitionedCall/StatefulPartitionedCall/input/_856", "shape": [1, 1, 768, 128], "dtype": "float32"}, {"name": "Func/StatefulPartitionedCall/StatefulPartitionedCall/input/_857", "shape": [128], "dtype": "float32"}, {"name": "StatefulPartitionedCall/StatefulPartitionedCall/transformer/residual/residual8/conv2/StyleNorm/ExpandDims_2/dim", "shape": [], "dtype": "int32"}, {"name": "StatefulPartitionedCall/StatefulPartitionedCall/transformer/residual/residual8/conv2/StyleNorm/ExpandDims_3/dim", "shape": [], "dtype": "int32"}, {"name": "StatefulPartitionedCall/StatefulPartitionedCall/transformer/residual/residual9/MirrorPad/paddings", "shape": [4, 2], "dtype": "int32"}, {"name": "Func/StatefulPartitionedCall/StatefulPartitionedCall/input/_994", "shape": [3, 3, 128, 128], "dtype": "float32"}, {"name": "StatefulPartitionedCall/StatefulPartitionedCall/transformer/residual/residual9/conv1/StyleNorm/moments/mean/reduction_indices", "shape": [2], "dtype": "int32"}, {"name": "StatefulPartitionedCall/StatefulPartitionedCall/transformer/residual/residual9/conv1/StyleNorm/moments/variance/reduction_indices", "shape": [2], "dtype": "int32"}, {"name": "StatefulPartitionedCall/StatefulPartitionedCall/transformer/residual/residual9/conv1/StyleNorm/batchnorm/add/y", "shape": [], "dtype": "float32"}, {"name": "Func/StatefulPartitionedCall/StatefulPartitionedCall/input/_860", "shape": [1, 1, 768, 128], "dtype": "float32"}, {"name": "Func/StatefulPartitionedCall/StatefulPartitionedCall/input/_861", "shape": [128], "dtype": "float32"}, {"name": "StatefulPartitionedCall/StatefulPartitionedCall/transformer/residual/residual9/conv1/StyleNorm/ExpandDims_2/dim", "shape": [], "dtype": "int32"}, {"name": "StatefulPartitionedCall/StatefulPartitionedCall/transformer/residual/residual9/conv1/StyleNorm/ExpandDims_3/dim", "shape": [], "dtype": "int32"}, {"name": "StatefulPartitionedCall/StatefulPartitionedCall/transformer/residual/residual9/MirrorPad_1/paddings", "shape": [4, 2], "dtype": "int32"}, {"name": "Func/StatefulPartitionedCall/StatefulPartitionedCall/input/_995", "shape": [3, 3, 128, 128], "dtype": "float32"}, {"name": "StatefulPartitionedCall/StatefulPartitionedCall/transformer/residual/residual9/conv2/StyleNorm/moments/mean/reduction_indices", "shape": [2], "dtype": "int32"}, {"name": "StatefulPartitionedCall/StatefulPartitionedCall/transformer/residual/residual9/conv2/StyleNorm/moments/variance/reduction_indices", "shape": [2], "dtype": "int32"}, {"name": "StatefulPartitionedCall/StatefulPartitionedCall/transformer/residual/residual9/conv2/StyleNorm/batchnorm/add/y", "shape": [], "dtype": "float32"}, {"name": "Func/StatefulPartitionedCall/StatefulPartitionedCall/input/_864", "shape": [1, 1, 768, 128], "dtype": "float32"}, {"name": "Func/StatefulPartitionedCall/StatefulPartitionedCall/input/_865", "shape": [128], "dtype": "float32"}, {"name": "StatefulPartitionedCall/StatefulPartitionedCall/transformer/residual/residual9/conv2/StyleNorm/ExpandDims_2/dim", "shape": [], "dtype": "int32"}, {"name": "StatefulPartitionedCall/StatefulPartitionedCall/transformer/residual/residual9/conv2/StyleNorm/ExpandDims_3/dim", "shape": [], "dtype": "int32"}, {"name": "StatefulPartitionedCall/StatefulPartitionedCall/transformer/residual/residual10/MirrorPad/paddings", "shape": [4, 2], "dtype": "int32"}, {"name": "Func/StatefulPartitionedCall/StatefulPartitionedCall/input/_996", "shape": [3, 3, 128, 128], "dtype": "float32"}, {"name": "StatefulPartitionedCall/StatefulPartitionedCall/transformer/residual/residual10/conv1/StyleNorm/moments/mean/reduction_indices", "shape": [2], "dtype": "int32"}, {"name": "StatefulPartitionedCall/StatefulPartitionedCall/transformer/residual/residual10/conv1/StyleNorm/moments/variance/reduction_indices", "shape": [2], "dtype": "int32"}, {"name": "StatefulPartitionedCall/StatefulPartitionedCall/transformer/residual/residual10/conv1/StyleNorm/batchnorm/add/y", "shape": [], "dtype": "float32"}, {"name": "Func/StatefulPartitionedCall/StatefulPartitionedCall/input/_868", "shape": [1, 1, 768, 128], "dtype": "float32"}, {"name": "Func/StatefulPartitionedCall/StatefulPartitionedCall/input/_869", "shape": [128], "dtype": "float32"}, {"name": "StatefulPartitionedCall/StatefulPartitionedCall/transformer/residual/residual10/conv1/StyleNorm/ExpandDims_2/dim", "shape": [], "dtype": "int32"}, {"name": "StatefulPartitionedCall/StatefulPartitionedCall/transformer/residual/residual10/conv1/StyleNorm/ExpandDims_3/dim", "shape": [], "dtype": "int32"}, {"name": "StatefulPartitionedCall/StatefulPartitionedCall/transformer/residual/residual10/MirrorPad_1/paddings", "shape": [4, 2], "dtype": "int32"}, {"name": "Func/StatefulPartitionedCall/StatefulPartitionedCall/input/_997", "shape": [3, 3, 128, 128], "dtype": "float32"}, {"name": "StatefulPartitionedCall/StatefulPartitionedCall/transformer/residual/residual10/conv2/StyleNorm/moments/mean/reduction_indices", "shape": [2], "dtype": "int32"}, {"name": "StatefulPartitionedCall/StatefulPartitionedCall/transformer/residual/residual10/conv2/StyleNorm/moments/variance/reduction_indices", "shape": [2], "dtype": "int32"}, {"name": "StatefulPartitionedCall/StatefulPartitionedCall/transformer/residual/residual10/conv2/StyleNorm/batchnorm/add/y", "shape": [], "dtype": "float32"}, {"name": "Func/StatefulPartitionedCall/StatefulPartitionedCall/input/_872", "shape": [1, 1, 768, 128], "dtype": "float32"}, {"name": "Func/StatefulPartitionedCall/StatefulPartitionedCall/input/_873", "shape": [128], "dtype": "float32"}, {"name": "StatefulPartitionedCall/StatefulPartitionedCall/transformer/residual/residual10/conv2/StyleNorm/ExpandDims_2/dim", "shape": [], "dtype": "int32"}, {"name": "StatefulPartitionedCall/StatefulPartitionedCall/transformer/residual/residual10/conv2/StyleNorm/ExpandDims_3/dim", "shape": [], "dtype": "int32"}, {"name": "StatefulPartitionedCall/StatefulPartitionedCall/transformer/residual/residual11/MirrorPad/paddings", "shape": [4, 2], "dtype": "int32"}, {"name": "Func/StatefulPartitionedCall/StatefulPartitionedCall/input/_998", "shape": [3, 3, 128, 128], "dtype": "float32"}, {"name": "StatefulPartitionedCall/StatefulPartitionedCall/transformer/residual/residual11/conv1/StyleNorm/moments/mean/reduction_indices", "shape": [2], "dtype": "int32"}, {"name": "StatefulPartitionedCall/StatefulPartitionedCall/transformer/residual/residual11/conv1/StyleNorm/moments/variance/reduction_indices", "shape": [2], "dtype": "int32"}, {"name": "StatefulPartitionedCall/StatefulPartitionedCall/transformer/residual/residual11/conv1/StyleNorm/batchnorm/add/y", "shape": [], "dtype": "float32"}, {"name": "Func/StatefulPartitionedCall/StatefulPartitionedCall/input/_876", "shape": [1, 1, 768, 128], "dtype": "float32"}, {"name": "Func/StatefulPartitionedCall/StatefulPartitionedCall/input/_877", "shape": [128], "dtype": "float32"}, {"name": "StatefulPartitionedCall/StatefulPartitionedCall/transformer/residual/residual11/conv1/StyleNorm/ExpandDims_2/dim", "shape": [], "dtype": "int32"}, {"name": "StatefulPartitionedCall/StatefulPartitionedCall/transformer/residual/residual11/conv1/StyleNorm/ExpandDims_3/dim", "shape": [], "dtype": "int32"}, {"name": "StatefulPartitionedCall/StatefulPartitionedCall/transformer/residual/residual11/MirrorPad_1/paddings", "shape": [4, 2], "dtype": "int32"}, {"name": "Func/StatefulPartitionedCall/StatefulPartitionedCall/input/_999", "shape": [3, 3, 128, 128], "dtype": "float32"}, {"name": "StatefulPartitionedCall/StatefulPartitionedCall/transformer/residual/residual11/conv2/StyleNorm/moments/mean/reduction_indices", "shape": [2], "dtype": "int32"}, {"name": "StatefulPartitionedCall/StatefulPartitionedCall/transformer/residual/residual11/conv2/StyleNorm/moments/variance/reduction_indices", "shape": [2], "dtype": "int32"}, {"name": "StatefulPartitionedCall/StatefulPartitionedCall/transformer/residual/residual11/conv2/StyleNorm/batchnorm/add/y", "shape": [], "dtype": "float32"}, {"name": "Func/StatefulPartitionedCall/StatefulPartitionedCall/input/_880", "shape": [1, 1, 768, 128], "dtype": "float32"}, {"name": "Func/StatefulPartitionedCall/StatefulPartitionedCall/input/_881", "shape": [128], "dtype": "float32"}, {"name": "StatefulPartitionedCall/StatefulPartitionedCall/transformer/residual/residual11/conv2/StyleNorm/ExpandDims_2/dim", "shape": [], "dtype": "int32"}, {"name": "StatefulPartitionedCall/StatefulPartitionedCall/transformer/residual/residual11/conv2/StyleNorm/ExpandDims_3/dim", "shape": [], "dtype": "int32"}, {"name": "StatefulPartitionedCall/StatefulPartitionedCall/transformer/residual/residual12/MirrorPad/paddings", "shape": [4, 2], "dtype": "int32"}, {"name": "Func/StatefulPartitionedCall/StatefulPartitionedCall/input/_1000", "shape": [3, 3, 128, 128], "dtype": "float32"}, {"name": "StatefulPartitionedCall/StatefulPartitionedCall/transformer/residual/residual12/conv1/StyleNorm/moments/mean/reduction_indices", "shape": [2], "dtype": "int32"}, {"name": "StatefulPartitionedCall/StatefulPartitionedCall/transformer/residual/residual12/conv1/StyleNorm/moments/variance/reduction_indices", "shape": [2], "dtype": "int32"}, {"name": "StatefulPartitionedCall/StatefulPartitionedCall/transformer/residual/residual12/conv1/StyleNorm/batchnorm/add/y", "shape": [], "dtype": "float32"}, {"name": "Func/StatefulPartitionedCall/StatefulPartitionedCall/input/_884", "shape": [1, 1, 768, 128], "dtype": "float32"}, {"name": "Func/StatefulPartitionedCall/StatefulPartitionedCall/input/_885", "shape": [128], "dtype": "float32"}, {"name": "StatefulPartitionedCall/StatefulPartitionedCall/transformer/residual/residual12/conv1/StyleNorm/ExpandDims_2/dim", "shape": [], "dtype": "int32"}, {"name": "StatefulPartitionedCall/StatefulPartitionedCall/transformer/residual/residual12/conv1/StyleNorm/ExpandDims_3/dim", "shape": [], "dtype": "int32"}, {"name": "StatefulPartitionedCall/StatefulPartitionedCall/transformer/residual/residual12/MirrorPad_1/paddings", "shape": [4, 2], "dtype": "int32"}, {"name": "Func/StatefulPartitionedCall/StatefulPartitionedCall/input/_1001", "shape": [3, 3, 128, 128], "dtype": "float32"}, {"name": "StatefulPartitionedCall/StatefulPartitionedCall/transformer/residual/residual12/conv2/StyleNorm/moments/mean/reduction_indices", "shape": [2], "dtype": "int32"}, {"name": "StatefulPartitionedCall/StatefulPartitionedCall/transformer/residual/residual12/conv2/StyleNorm/moments/variance/reduction_indices", "shape": [2], "dtype": "int32"}, {"name": "StatefulPartitionedCall/StatefulPartitionedCall/transformer/residual/residual12/conv2/StyleNorm/batchnorm/add/y", "shape": [], "dtype": "float32"}, {"name": "Func/StatefulPartitionedCall/StatefulPartitionedCall/input/_888", "shape": [1, 1, 768, 128], "dtype": "float32"}, {"name": "Func/StatefulPartitionedCall/StatefulPartitionedCall/input/_889", "shape": [128], "dtype": "float32"}, {"name": "StatefulPartitionedCall/StatefulPartitionedCall/transformer/residual/residual12/conv2/StyleNorm/ExpandDims_2/dim", "shape": [], "dtype": "int32"}, {"name": "StatefulPartitionedCall/StatefulPartitionedCall/transformer/residual/residual12/conv2/StyleNorm/ExpandDims_3/dim", "shape": [], "dtype": "int32"}, {"name": "StatefulPartitionedCall/StatefulPartitionedCall/transformer/residual/residual13/MirrorPad/paddings", "shape": [4, 2], "dtype": "int32"}, {"name": "Func/StatefulPartitionedCall/StatefulPartitionedCall/input/_1002", "shape": [3, 3, 128, 128], "dtype": "float32"}, {"name": "StatefulPartitionedCall/StatefulPartitionedCall/transformer/residual/residual13/conv1/StyleNorm/moments/mean/reduction_indices", "shape": [2], "dtype": "int32"}, {"name": "StatefulPartitionedCall/StatefulPartitionedCall/transformer/residual/residual13/conv1/StyleNorm/moments/variance/reduction_indices", "shape": [2], "dtype": "int32"}, {"name": "StatefulPartitionedCall/StatefulPartitionedCall/transformer/residual/residual13/conv1/StyleNorm/batchnorm/add/y", "shape": [], "dtype": "float32"}, {"name": "Func/StatefulPartitionedCall/StatefulPartitionedCall/input/_892", "shape": [1, 1, 768, 128], "dtype": "float32"}, {"name": "Func/StatefulPartitionedCall/StatefulPartitionedCall/input/_893", "shape": [128], "dtype": "float32"}, {"name": "StatefulPartitionedCall/StatefulPartitionedCall/transformer/residual/residual13/conv1/StyleNorm/ExpandDims_2/dim", "shape": [], "dtype": "int32"}, {"name": "StatefulPartitionedCall/StatefulPartitionedCall/transformer/residual/residual13/conv1/StyleNorm/ExpandDims_3/dim", "shape": [], "dtype": "int32"}, {"name": "StatefulPartitionedCall/StatefulPartitionedCall/transformer/residual/residual13/MirrorPad_1/paddings", "shape": [4, 2], "dtype": "int32"}, {"name": "Func/StatefulPartitionedCall/StatefulPartitionedCall/input/_1003", "shape": [3, 3, 128, 128], "dtype": "float32"}, {"name": "StatefulPartitionedCall/StatefulPartitionedCall/transformer/residual/residual13/conv2/StyleNorm/moments/mean/reduction_indices", "shape": [2], "dtype": "int32"}, {"name": "StatefulPartitionedCall/StatefulPartitionedCall/transformer/residual/residual13/conv2/StyleNorm/moments/variance/reduction_indices", "shape": [2], "dtype": "int32"}, {"name": "StatefulPartitionedCall/StatefulPartitionedCall/transformer/residual/residual13/conv2/StyleNorm/batchnorm/add/y", "shape": [], "dtype": "float32"}, {"name": "Func/StatefulPartitionedCall/StatefulPartitionedCall/input/_896", "shape": [1, 1, 768, 128], "dtype": "float32"}, {"name": "Func/StatefulPartitionedCall/StatefulPartitionedCall/input/_897", "shape": [128], "dtype": "float32"}, {"name": "StatefulPartitionedCall/StatefulPartitionedCall/transformer/residual/residual13/conv2/StyleNorm/ExpandDims_2/dim", "shape": [], "dtype": "int32"}, {"name": "StatefulPartitionedCall/StatefulPartitionedCall/transformer/residual/residual13/conv2/StyleNorm/ExpandDims_3/dim", "shape": [], "dtype": "int32"}, {"name": "StatefulPartitionedCall/StatefulPartitionedCall/transformer/residual/residual14/MirrorPad/paddings", "shape": [4, 2], "dtype": "int32"}, {"name": "Func/StatefulPartitionedCall/StatefulPartitionedCall/input/_1004", "shape": [3, 3, 128, 128], "dtype": "float32"}, {"name": "StatefulPartitionedCall/StatefulPartitionedCall/transformer/residual/residual14/conv1/StyleNorm/moments/mean/reduction_indices", "shape": [2], "dtype": "int32"}, {"name": "StatefulPartitionedCall/StatefulPartitionedCall/transformer/residual/residual14/conv1/StyleNorm/moments/variance/reduction_indices", "shape": [2], "dtype": "int32"}, {"name": "StatefulPartitionedCall/StatefulPartitionedCall/transformer/residual/residual14/conv1/StyleNorm/batchnorm/add/y", "shape": [], "dtype": "float32"}, {"name": "Func/StatefulPartitionedCall/StatefulPartitionedCall/input/_900", "shape": [1, 1, 768, 128], "dtype": "float32"}, {"name": "Func/StatefulPartitionedCall/StatefulPartitionedCall/input/_901", "shape": [128], "dtype": "float32"}, {"name": "StatefulPartitionedCall/StatefulPartitionedCall/transformer/residual/residual14/conv1/StyleNorm/ExpandDims_2/dim", "shape": [], "dtype": "int32"}, {"name": "StatefulPartitionedCall/StatefulPartitionedCall/transformer/residual/residual14/conv1/StyleNorm/ExpandDims_3/dim", "shape": [], "dtype": "int32"}, {"name": "StatefulPartitionedCall/StatefulPartitionedCall/transformer/residual/residual14/MirrorPad_1/paddings", "shape": [4, 2], "dtype": "int32"}, {"name": "Func/StatefulPartitionedCall/StatefulPartitionedCall/input/_1005", "shape": [3, 3, 128, 128], "dtype": "float32"}, {"name": "StatefulPartitionedCall/StatefulPartitionedCall/transformer/residual/residual14/conv2/StyleNorm/moments/mean/reduction_indices", "shape": [2], "dtype": "int32"}, {"name": "StatefulPartitionedCall/StatefulPartitionedCall/transformer/residual/residual14/conv2/StyleNorm/moments/variance/reduction_indices", "shape": [2], "dtype": "int32"}, {"name": "StatefulPartitionedCall/StatefulPartitionedCall/transformer/residual/residual14/conv2/StyleNorm/batchnorm/add/y", "shape": [], "dtype": "float32"}, {"name": "Func/StatefulPartitionedCall/StatefulPartitionedCall/input/_904", "shape": [1, 1, 768, 128], "dtype": "float32"}, {"name": "Func/StatefulPartitionedCall/StatefulPartitionedCall/input/_905", "shape": [128], "dtype": "float32"}, {"name": "StatefulPartitionedCall/StatefulPartitionedCall/transformer/residual/residual14/conv2/StyleNorm/ExpandDims_2/dim", "shape": [], "dtype": "int32"}, {"name": "StatefulPartitionedCall/StatefulPartitionedCall/transformer/residual/residual14/conv2/StyleNorm/ExpandDims_3/dim", "shape": [], "dtype": "int32"}, {"name": "StatefulPartitionedCall/StatefulPartitionedCall/transformer/residual/residual15/MirrorPad/paddings", "shape": [4, 2], "dtype": "int32"}, {"name": "Func/StatefulPartitionedCall/StatefulPartitionedCall/input/_1006", "shape": [3, 3, 128, 128], "dtype": "float32"}, {"name": "StatefulPartitionedCall/StatefulPartitionedCall/transformer/residual/residual15/conv1/StyleNorm/moments/mean/reduction_indices", "shape": [2], "dtype": "int32"}, {"name": "StatefulPartitionedCall/StatefulPartitionedCall/transformer/residual/residual15/conv1/StyleNorm/moments/variance/reduction_indices", "shape": [2], "dtype": "int32"}, {"name": "StatefulPartitionedCall/StatefulPartitionedCall/transformer/residual/residual15/conv1/StyleNorm/batchnorm/add/y", "shape": [], "dtype": "float32"}, {"name": "Func/StatefulPartitionedCall/StatefulPartitionedCall/input/_908", "shape": [1, 1, 768, 128], "dtype": "float32"}, {"name": "Func/StatefulPartitionedCall/StatefulPartitionedCall/input/_909", "shape": [128], "dtype": "float32"}, {"name": "StatefulPartitionedCall/StatefulPartitionedCall/transformer/residual/residual15/conv1/StyleNorm/ExpandDims_2/dim", "shape": [], "dtype": "int32"}, {"name": "StatefulPartitionedCall/StatefulPartitionedCall/transformer/residual/residual15/conv1/StyleNorm/ExpandDims_3/dim", "shape": [], "dtype": "int32"}, {"name": "StatefulPartitionedCall/StatefulPartitionedCall/transformer/residual/residual15/MirrorPad_1/paddings", "shape": [4, 2], "dtype": "int32"}, {"name": "Func/StatefulPartitionedCall/StatefulPartitionedCall/input/_1007", "shape": [3, 3, 128, 128], "dtype": "float32"}, {"name": "StatefulPartitionedCall/StatefulPartitionedCall/transformer/residual/residual15/conv2/StyleNorm/moments/mean/reduction_indices", "shape": [2], "dtype": "int32"}, {"name": "StatefulPartitionedCall/StatefulPartitionedCall/transformer/residual/residual15/conv2/StyleNorm/moments/variance/reduction_indices", "shape": [2], "dtype": "int32"}, {"name": "StatefulPartitionedCall/StatefulPartitionedCall/transformer/residual/residual15/conv2/StyleNorm/batchnorm/add/y", "shape": [], "dtype": "float32"}, {"name": "Func/StatefulPartitionedCall/StatefulPartitionedCall/input/_912", "shape": [1, 1, 768, 128], "dtype": "float32"}, {"name": "Func/StatefulPartitionedCall/StatefulPartitionedCall/input/_913", "shape": [128], "dtype": "float32"}, {"name": "StatefulPartitionedCall/StatefulPartitionedCall/transformer/residual/residual15/conv2/StyleNorm/ExpandDims_2/dim", "shape": [], "dtype": "int32"}, {"name": "StatefulPartitionedCall/StatefulPartitionedCall/transformer/residual/residual15/conv2/StyleNorm/ExpandDims_3/dim", "shape": [], "dtype": "int32"}, {"name": "StatefulPartitionedCall/StatefulPartitionedCall/transformer/residual/residual16/MirrorPad/paddings", "shape": [4, 2], "dtype": "int32"}, {"name": "Func/StatefulPartitionedCall/StatefulPartitionedCall/input/_1008", "shape": [3, 3, 128, 128], "dtype": "float32"}, {"name": "StatefulPartitionedCall/StatefulPartitionedCall/transformer/residual/residual16/conv1/StyleNorm/moments/mean/reduction_indices", "shape": [2], "dtype": "int32"}, {"name": "StatefulPartitionedCall/StatefulPartitionedCall/transformer/residual/residual16/conv1/StyleNorm/moments/variance/reduction_indices", "shape": [2], "dtype": "int32"}, {"name": "StatefulPartitionedCall/StatefulPartitionedCall/transformer/residual/residual16/conv1/StyleNorm/batchnorm/add/y", "shape": [], "dtype": "float32"}, {"name": "Func/StatefulPartitionedCall/StatefulPartitionedCall/input/_916", "shape": [1, 1, 768, 128], "dtype": "float32"}, {"name": "Func/StatefulPartitionedCall/StatefulPartitionedCall/input/_917", "shape": [128], "dtype": "float32"}, {"name": "StatefulPartitionedCall/StatefulPartitionedCall/transformer/residual/residual16/conv1/StyleNorm/ExpandDims_2/dim", "shape": [], "dtype": "int32"}, {"name": "StatefulPartitionedCall/StatefulPartitionedCall/transformer/residual/residual16/conv1/StyleNorm/ExpandDims_3/dim", "shape": [], "dtype": "int32"}, {"name": "StatefulPartitionedCall/StatefulPartitionedCall/transformer/residual/residual16/MirrorPad_1/paddings", "shape": [4, 2], "dtype": "int32"}, {"name": "Func/StatefulPartitionedCall/StatefulPartitionedCall/input/_1009", "shape": [3, 3, 128, 128], "dtype": "float32"}, {"name": "StatefulPartitionedCall/StatefulPartitionedCall/transformer/residual/residual16/conv2/StyleNorm/moments/mean/reduction_indices", "shape": [2], "dtype": "int32"}, {"name": "StatefulPartitionedCall/StatefulPartitionedCall/transformer/residual/residual16/conv2/StyleNorm/moments/variance/reduction_indices", "shape": [2], "dtype": "int32"}, {"name": "StatefulPartitionedCall/StatefulPartitionedCall/transformer/residual/residual16/conv2/StyleNorm/batchnorm/add/y", "shape": [], "dtype": "float32"}, {"name": "Func/StatefulPartitionedCall/StatefulPartitionedCall/input/_920", "shape": [1, 1, 768, 128], "dtype": "float32"}, {"name": "Func/StatefulPartitionedCall/StatefulPartitionedCall/input/_921", "shape": [128], "dtype": "float32"}, {"name": "StatefulPartitionedCall/StatefulPartitionedCall/transformer/residual/residual16/conv2/StyleNorm/ExpandDims_2/dim", "shape": [], "dtype": "int32"}, {"name": "StatefulPartitionedCall/StatefulPartitionedCall/transformer/residual/residual16/conv2/StyleNorm/ExpandDims_3/dim", "shape": [], "dtype": "int32"}, {"name": "StatefulPartitionedCall/StatefulPartitionedCall/transformer/residual/residual17/MirrorPad/paddings", "shape": [4, 2], "dtype": "int32"}, {"name": "Func/StatefulPartitionedCall/StatefulPartitionedCall/input/_1010", "shape": [3, 3, 128, 128], "dtype": "float32"}, {"name": "StatefulPartitionedCall/StatefulPartitionedCall/transformer/residual/residual17/conv1/StyleNorm/moments/mean/reduction_indices", "shape": [2], "dtype": "int32"}, {"name": "StatefulPartitionedCall/StatefulPartitionedCall/transformer/residual/residual17/conv1/StyleNorm/moments/variance/reduction_indices", "shape": [2], "dtype": "int32"}, {"name": "StatefulPartitionedCall/StatefulPartitionedCall/transformer/residual/residual17/conv1/StyleNorm/batchnorm/add/y", "shape": [], "dtype": "float32"}, {"name": "Func/StatefulPartitionedCall/StatefulPartitionedCall/input/_924", "shape": [1, 1, 768, 128], "dtype": "float32"}, {"name": "Func/StatefulPartitionedCall/StatefulPartitionedCall/input/_925", "shape": [128], "dtype": "float32"}, {"name": "StatefulPartitionedCall/StatefulPartitionedCall/transformer/residual/residual17/conv1/StyleNorm/ExpandDims_2/dim", "shape": [], "dtype": "int32"}, {"name": "StatefulPartitionedCall/StatefulPartitionedCall/transformer/residual/residual17/conv1/StyleNorm/ExpandDims_3/dim", "shape": [], "dtype": "int32"}, {"name": "StatefulPartitionedCall/StatefulPartitionedCall/transformer/residual/residual17/MirrorPad_1/paddings", "shape": [4, 2], "dtype": "int32"}, {"name": "Func/StatefulPartitionedCall/StatefulPartitionedCall/input/_1011", "shape": [3, 3, 128, 128], "dtype": "float32"}, {"name": "StatefulPartitionedCall/StatefulPartitionedCall/transformer/residual/residual17/conv2/StyleNorm/moments/mean/reduction_indices", "shape": [2], "dtype": "int32"}, {"name": "StatefulPartitionedCall/StatefulPartitionedCall/transformer/residual/residual17/conv2/StyleNorm/moments/variance/reduction_indices", "shape": [2], "dtype": "int32"}, {"name": "StatefulPartitionedCall/StatefulPartitionedCall/transformer/residual/residual17/conv2/StyleNorm/batchnorm/add/y", "shape": [], "dtype": "float32"}, {"name": "Func/StatefulPartitionedCall/StatefulPartitionedCall/input/_928", "shape": [1, 1, 768, 128], "dtype": "float32"}, {"name": "Func/StatefulPartitionedCall/StatefulPartitionedCall/input/_929", "shape": [128], "dtype": "float32"}, {"name": "StatefulPartitionedCall/StatefulPartitionedCall/transformer/residual/residual17/conv2/StyleNorm/ExpandDims_2/dim", "shape": [], "dtype": "int32"}, {"name": "StatefulPartitionedCall/StatefulPartitionedCall/transformer/residual/residual17/conv2/StyleNorm/ExpandDims_3/dim", "shape": [], "dtype": "int32"}, {"name": "StatefulPartitionedCall/StatefulPartitionedCall/transformer/residual/residual18/MirrorPad/paddings", "shape": [4, 2], "dtype": "int32"}, {"name": "Func/StatefulPartitionedCall/StatefulPartitionedCall/input/_1012", "shape": [3, 3, 128, 128], "dtype": "float32"}, {"name": "StatefulPartitionedCall/StatefulPartitionedCall/transformer/residual/residual18/conv1/StyleNorm/moments/mean/reduction_indices", "shape": [2], "dtype": "int32"}, {"name": "StatefulPartitionedCall/StatefulPartitionedCall/transformer/residual/residual18/conv1/StyleNorm/moments/variance/reduction_indices", "shape": [2], "dtype": "int32"}, {"name": "StatefulPartitionedCall/StatefulPartitionedCall/transformer/residual/residual18/conv1/StyleNorm/batchnorm/add/y", "shape": [], "dtype": "float32"}, {"name": "Func/StatefulPartitionedCall/StatefulPartitionedCall/input/_932", "shape": [1, 1, 768, 128], "dtype": "float32"}, {"name": "Func/StatefulPartitionedCall/StatefulPartitionedCall/input/_933", "shape": [128], "dtype": "float32"}, {"name": "StatefulPartitionedCall/StatefulPartitionedCall/transformer/residual/residual18/conv1/StyleNorm/ExpandDims_2/dim", "shape": [], "dtype": "int32"}, {"name": "StatefulPartitionedCall/StatefulPartitionedCall/transformer/residual/residual18/conv1/StyleNorm/ExpandDims_3/dim", "shape": [], "dtype": "int32"}, {"name": "StatefulPartitionedCall/StatefulPartitionedCall/transformer/residual/residual18/MirrorPad_1/paddings", "shape": [4, 2], "dtype": "int32"}, {"name": "Func/StatefulPartitionedCall/StatefulPartitionedCall/input/_1013", "shape": [3, 3, 128, 128], "dtype": "float32"}, {"name": "StatefulPartitionedCall/StatefulPartitionedCall/transformer/residual/residual18/conv2/StyleNorm/moments/mean/reduction_indices", "shape": [2], "dtype": "int32"}, {"name": "StatefulPartitionedCall/StatefulPartitionedCall/transformer/residual/residual18/conv2/StyleNorm/moments/variance/reduction_indices", "shape": [2], "dtype": "int32"}, {"name": "StatefulPartitionedCall/StatefulPartitionedCall/transformer/residual/residual18/conv2/StyleNorm/batchnorm/add/y", "shape": [], "dtype": "float32"}, {"name": "Func/StatefulPartitionedCall/StatefulPartitionedCall/input/_936", "shape": [1, 1, 768, 128], "dtype": "float32"}, {"name": "Func/StatefulPartitionedCall/StatefulPartitionedCall/input/_937", "shape": [128], "dtype": "float32"}, {"name": "StatefulPartitionedCall/StatefulPartitionedCall/transformer/residual/residual18/conv2/StyleNorm/ExpandDims_2/dim", "shape": [], "dtype": "int32"}, {"name": "StatefulPartitionedCall/StatefulPartitionedCall/transformer/residual/residual18/conv2/StyleNorm/ExpandDims_3/dim", "shape": [], "dtype": "int32"}, {"name": "StatefulPartitionedCall/StatefulPartitionedCall/transformer/residual/residual19/MirrorPad/paddings", "shape": [4, 2], "dtype": "int32"}, {"name": "Func/StatefulPartitionedCall/StatefulPartitionedCall/input/_1014", "shape": [3, 3, 128, 128], "dtype": "float32"}, {"name": "StatefulPartitionedCall/StatefulPartitionedCall/transformer/residual/residual19/conv1/StyleNorm/moments/mean/reduction_indices", "shape": [2], "dtype": "int32"}, {"name": "StatefulPartitionedCall/StatefulPartitionedCall/transformer/residual/residual19/conv1/StyleNorm/moments/variance/reduction_indices", "shape": [2], "dtype": "int32"}, {"name": "StatefulPartitionedCall/StatefulPartitionedCall/transformer/residual/residual19/conv1/StyleNorm/batchnorm/add/y", "shape": [], "dtype": "float32"}, {"name": "Func/StatefulPartitionedCall/StatefulPartitionedCall/input/_940", "shape": [1, 1, 768, 128], "dtype": "float32"}, {"name": "Func/StatefulPartitionedCall/StatefulPartitionedCall/input/_941", "shape": [128], "dtype": "float32"}, {"name": "StatefulPartitionedCall/StatefulPartitionedCall/transformer/residual/residual19/conv1/StyleNorm/ExpandDims_2/dim", "shape": [], "dtype": "int32"}, {"name": "StatefulPartitionedCall/StatefulPartitionedCall/transformer/residual/residual19/conv1/StyleNorm/ExpandDims_3/dim", "shape": [], "dtype": "int32"}, {"name": "StatefulPartitionedCall/StatefulPartitionedCall/transformer/residual/residual19/MirrorPad_1/paddings", "shape": [4, 2], "dtype": "int32"}, {"name": "Func/StatefulPartitionedCall/StatefulPartitionedCall/input/_1015", "shape": [3, 3, 128, 128], "dtype": "float32"}, {"name": "StatefulPartitionedCall/StatefulPartitionedCall/transformer/residual/residual19/conv2/StyleNorm/moments/mean/reduction_indices", "shape": [2], "dtype": "int32"}, {"name": "StatefulPartitionedCall/StatefulPartitionedCall/transformer/residual/residual19/conv2/StyleNorm/moments/variance/reduction_indices", "shape": [2], "dtype": "int32"}, {"name": "StatefulPartitionedCall/StatefulPartitionedCall/transformer/residual/residual19/conv2/StyleNorm/batchnorm/add/y", "shape": [], "dtype": "float32"}, {"name": "Func/StatefulPartitionedCall/StatefulPartitionedCall/input/_944", "shape": [1, 1, 768, 128], "dtype": "float32"}, {"name": "Func/StatefulPartitionedCall/StatefulPartitionedCall/input/_945", "shape": [128], "dtype": "float32"}, {"name": "StatefulPartitionedCall/StatefulPartitionedCall/transformer/residual/residual19/conv2/StyleNorm/ExpandDims_2/dim", "shape": [], "dtype": "int32"}, {"name": "StatefulPartitionedCall/StatefulPartitionedCall/transformer/residual/residual19/conv2/StyleNorm/ExpandDims_3/dim", "shape": [], "dtype": "int32"}, {"name": "StatefulPartitionedCall/StatefulPartitionedCall/transformer/residual/residual20/MirrorPad/paddings", "shape": [4, 2], "dtype": "int32"}, {"name": "Func/StatefulPartitionedCall/StatefulPartitionedCall/input/_1016", "shape": [3, 3, 128, 128], "dtype": "float32"}, {"name": "StatefulPartitionedCall/StatefulPartitionedCall/transformer/residual/residual20/conv1/StyleNorm/moments/mean/reduction_indices", "shape": [2], "dtype": "int32"}, {"name": "StatefulPartitionedCall/StatefulPartitionedCall/transformer/residual/residual20/conv1/StyleNorm/moments/variance/reduction_indices", "shape": [2], "dtype": "int32"}, {"name": "StatefulPartitionedCall/StatefulPartitionedCall/transformer/residual/residual20/conv1/StyleNorm/batchnorm/add/y", "shape": [], "dtype": "float32"}, {"name": "Func/StatefulPartitionedCall/StatefulPartitionedCall/input/_948", "shape": [1, 1, 768, 128], "dtype": "float32"}, {"name": "Func/StatefulPartitionedCall/StatefulPartitionedCall/input/_949", "shape": [128], "dtype": "float32"}, {"name": "StatefulPartitionedCall/StatefulPartitionedCall/transformer/residual/residual20/conv1/StyleNorm/ExpandDims_2/dim", "shape": [], "dtype": "int32"}, {"name": "StatefulPartitionedCall/StatefulPartitionedCall/transformer/residual/residual20/conv1/StyleNorm/ExpandDims_3/dim", "shape": [], "dtype": "int32"}, {"name": "StatefulPartitionedCall/StatefulPartitionedCall/transformer/residual/residual20/MirrorPad_1/paddings", "shape": [4, 2], "dtype": "int32"}, {"name": "Func/StatefulPartitionedCall/StatefulPartitionedCall/input/_1017", "shape": [3, 3, 128, 128], "dtype": "float32"}, {"name": "StatefulPartitionedCall/StatefulPartitionedCall/transformer/residual/residual20/conv2/StyleNorm/moments/mean/reduction_indices", "shape": [2], "dtype": "int32"}, {"name": "StatefulPartitionedCall/StatefulPartitionedCall/transformer/residual/residual20/conv2/StyleNorm/moments/variance/reduction_indices", "shape": [2], "dtype": "int32"}, {"name": "StatefulPartitionedCall/StatefulPartitionedCall/transformer/residual/residual20/conv2/StyleNorm/batchnorm/add/y", "shape": [], "dtype": "float32"}, {"name": "Func/StatefulPartitionedCall/StatefulPartitionedCall/input/_952", "shape": [1, 1, 768, 128], "dtype": "float32"}, {"name": "Func/StatefulPartitionedCall/StatefulPartitionedCall/input/_953", "shape": [128], "dtype": "float32"}, {"name": "StatefulPartitionedCall/StatefulPartitionedCall/transformer/residual/residual20/conv2/StyleNorm/ExpandDims_2/dim", "shape": [], "dtype": "int32"}, {"name": "StatefulPartitionedCall/StatefulPartitionedCall/transformer/residual/residual20/conv2/StyleNorm/ExpandDims_3/dim", "shape": [], "dtype": "int32"}, {"name": "StatefulPartitionedCall/StatefulPartitionedCall/transformer/expand/conv1/strided_slice_1/stack", "shape": [1], "dtype": "int32"}, {"name": "StatefulPartitionedCall/StatefulPartitionedCall/transformer/expand/conv1/strided_slice_1/stack_1", "shape": [1], "dtype": "int32"}, {"name": "StatefulPartitionedCall/StatefulPartitionedCall/transformer/expand/conv1/strided_slice_1/stack_2", "shape": [1], "dtype": "int32"}, {"name": "StatefulPartitionedCall/StatefulPartitionedCall/transformer/expand/conv1/MirrorPad/paddings", "shape": [4, 2], "dtype": "int32"}, {"name": "Func/StatefulPartitionedCall/StatefulPartitionedCall/input/_1018", "shape": [3, 3, 128, 64], "dtype": "float32"}, {"name": "StatefulPartitionedCall/StatefulPartitionedCall/transformer/expand/conv1/conv/StyleNorm/moments/mean/reduction_indices", "shape": [2], "dtype": "int32"}, {"name": "StatefulPartitionedCall/StatefulPartitionedCall/transformer/expand/conv1/conv/StyleNorm/moments/variance/reduction_indices", "shape": [2], "dtype": "int32"}, {"name": "StatefulPartitionedCall/StatefulPartitionedCall/transformer/expand/conv1/conv/StyleNorm/batchnorm/add/y", "shape": [], "dtype": "float32"}, {"name": "Func/StatefulPartitionedCall/StatefulPartitionedCall/input/_956", "shape": [1, 1, 768, 64], "dtype": "float32"}, {"name": "Func/StatefulPartitionedCall/StatefulPartitionedCall/input/_957", "shape": [64], "dtype": "float32"}, {"name": "StatefulPartitionedCall/StatefulPartitionedCall/transformer/expand/conv1/conv/StyleNorm/ExpandDims_2/dim", "shape": [], "dtype": "int32"}, {"name": "StatefulPartitionedCall/StatefulPartitionedCall/transformer/expand/conv1/conv/StyleNorm/ExpandDims_3/dim", "shape": [], "dtype": "int32"}, {"name": "StatefulPartitionedCall/StatefulPartitionedCall/transformer/expand/conv2/strided_slice_1/stack", "shape": [1], "dtype": "int32"}, {"name": "StatefulPartitionedCall/StatefulPartitionedCall/transformer/expand/conv2/strided_slice_1/stack_1", "shape": [1], "dtype": "int32"}, {"name": "StatefulPartitionedCall/StatefulPartitionedCall/transformer/expand/conv2/strided_slice_1/stack_2", "shape": [1], "dtype": "int32"}, {"name": "StatefulPartitionedCall/StatefulPartitionedCall/transformer/expand/conv2/MirrorPad/paddings", "shape": [4, 2], "dtype": "int32"}, {"name": "Func/StatefulPartitionedCall/StatefulPartitionedCall/input/_1019", "shape": [3, 3, 64, 32], "dtype": "float32"}, {"name": "StatefulPartitionedCall/StatefulPartitionedCall/transformer/expand/conv2/conv/StyleNorm/moments/mean/reduction_indices", "shape": [2], "dtype": "int32"}, {"name": "StatefulPartitionedCall/StatefulPartitionedCall/transformer/expand/conv2/conv/StyleNorm/moments/variance/reduction_indices", "shape": [2], "dtype": "int32"}, {"name": "StatefulPartitionedCall/StatefulPartitionedCall/transformer/expand/conv2/conv/StyleNorm/batchnorm/add/y", "shape": [], "dtype": "float32"}, {"name": "Func/StatefulPartitionedCall/StatefulPartitionedCall/input/_960", "shape": [1, 1, 768, 32], "dtype": "float32"}, {"name": "Func/StatefulPartitionedCall/StatefulPartitionedCall/input/_961", "shape": [32], "dtype": "float32"}, {"name": "StatefulPartitionedCall/StatefulPartitionedCall/transformer/expand/conv2/conv/StyleNorm/ExpandDims_2/dim", "shape": [], "dtype": "int32"}, {"name": "StatefulPartitionedCall/StatefulPartitionedCall/transformer/expand/conv2/conv/StyleNorm/ExpandDims_3/dim", "shape": [], "dtype": "int32"}, {"name": "StatefulPartitionedCall/StatefulPartitionedCall/transformer/expand/conv3/strided_slice_1/stack", "shape": [1], "dtype": "int32"}, {"name": "StatefulPartitionedCall/StatefulPartitionedCall/transformer/expand/conv3/strided_slice_1/stack_1", "shape": [1], "dtype": "int32"}, {"name": "StatefulPartitionedCall/StatefulPartitionedCall/transformer/expand/conv3/strided_slice_1/stack_2", "shape": [1], "dtype": "int32"}, {"name": "StatefulPartitionedCall/StatefulPartitionedCall/transformer/expand/conv3/MirrorPad/paddings", "shape": [4, 2], "dtype": "int32"}, {"name": "Func/StatefulPartitionedCall/StatefulPartitionedCall/input/_1020", "shape": [9, 9, 32, 3], "dtype": "float32"}, {"name": "StatefulPartitionedCall/StatefulPartitionedCall/transformer/expand/conv3/conv/StyleNorm/moments/mean/reduction_indices", "shape": [2], "dtype": "int32"}, {"name": "StatefulPartitionedCall/StatefulPartitionedCall/transformer/expand/conv3/conv/StyleNorm/moments/variance/reduction_indices", "shape": [2], "dtype": "int32"}, {"name": "StatefulPartitionedCall/StatefulPartitionedCall/transformer/expand/conv3/conv/StyleNorm/batchnorm/add/y", "shape": [], "dtype": "float32"}, {"name": "StatefulPartitionedCall/StatefulPartitionedCall/InceptionV3/Mixed_5b/concat/axis", "shape": [], "dtype": "int32"}, {"name": "StatefulPartitionedCall/StatefulPartitionedCall/InceptionV3/Mixed_5c/concat/axis", "shape": [], "dtype": "int32"}, {"name": "StatefulPartitionedCall/StatefulPartitionedCall/InceptionV3/Mixed_5d/concat/axis", "shape": [], "dtype": "int32"}, {"name": "StatefulPartitionedCall/StatefulPartitionedCall/InceptionV3/Mixed_6a/concat/axis", "shape": [], "dtype": "int32"}, {"name": "StatefulPartitionedCall/StatefulPartitionedCall/InceptionV3/Mixed_6b/concat/axis", "shape": [], "dtype": "int32"}, {"name": "StatefulPartitionedCall/StatefulPartitionedCall/InceptionV3/Mixed_6c/concat/axis", "shape": [], "dtype": "int32"}, {"name": "StatefulPartitionedCall/StatefulPartitionedCall/InceptionV3/Mixed_6d/concat/axis", "shape": [], "dtype": "int32"}, {"name": "StatefulPartitionedCall/StatefulPartitionedCall/InceptionV3/Mixed_6e/concat/axis", "shape": [], "dtype": "int32"}, {"name": "StatefulPartitionedCall/StatefulPartitionedCall/bottleneck/Mean/reduction_indices", "shape": [2], "dtype": "int32"}, {"name": "Func/StatefulPartitionedCall/StatefulPartitionedCall/input/_964", "shape": [1, 1, 768, 3], "dtype": "float32"}, {"name": "Func/StatefulPartitionedCall/StatefulPartitionedCall/input/_965", "shape": [3], "dtype": "float32"}, {"name": "StatefulPartitionedCall/StatefulPartitionedCall/transformer/expand/conv3/conv/StyleNorm/ExpandDims_2/dim", "shape": [], "dtype": "int32"}, {"name": "StatefulPartitionedCall/StatefulPartitionedCall/transformer/expand/conv3/conv/StyleNorm/ExpandDims_3/dim", "shape": [], "dtype": "int32"}]}]}